model/modelFCNet/LfwNet/RReLU/FCNet_epoch3_Cluster11.pkl (torch_old, 107626 bytes, 4 tensors)

fc1.weight f4 [100, 256]
000000 01 c5 a3 bd 02 4c 92 3c 90 e6 db 3d c1 c0 47 3e
       -0.0799656 0.017858509 0.10737336 0.19507124
000010 89 f0 9a bd d6 67 8c bd d9 5c 06 be 0a 18 f7 bd
       -0.0756541 -0.06855743 -0.13121356 -0.12065132
000020 02 7d 7e 3d 45 47 01 bc c5 ad b1 bd 4b 5f b6 bd
       0.062130935 -0.007890527 -0.08675722 -0.089048944
000030 31 a0 13 3e cd ba 47 bc 1b ad d6 bd 8d 02 fc 3b
       0.14416577 -0.012190533 -0.10482236 0.0076907338
000040 df 91 a6 3d ff 41 75 3b e6 16 48 be d9 b2 81 3c
       0.081332915 0.003742337 -0.19539985 0.015832352
000050 c9 4c 0c be ce be 77 bd a5 b8 8d be 18 ce 81 bc
       -0.13701166 -0.0604847 -0.27679935 -0.015845343
000060 c8 92 b2 bd 36 74 32 bd 24 f7 15 3d 06 8e 79 3d
       -0.087194026 -0.04356786 0.036612645 0.06092646
000070 ba 49 ca bd d2 69 75 bd 02 ef 6e bd 6b 66 8e 3d
       -0.098773435 -0.05991537 -0.058333404 0.069531284
000080 d7 0d e8 bc eb 2b 04 bd 0b b4 92 3a 90 f6 f4 3d
       -0.028326912 -0.032268446 0.0011192573 0.119610906
000090 9e ba 80 3c d0 0f c2 3c 35 b3 b9 3d 13 49 13 3c
       0.015713986 0.02368918 0.09067384 0.00898959
0000a0 86 48 64 3d 80 20 50 bd 8f 5a dc bc 5b 22 4b 3d
       0.055733226 -0.050812244 -0.02689865 0.04959331
0000b0 80 48 e4 3d 81 30 96 3c 77 8d 66 3c 43 46 d8 3c
       0.11146641 0.018333675 0.014071814 0.02640069
0000c0 6c 1e 38 bd ca 97 71 3c 5a 62 03 3d 3f f9 11 3e
       -0.044950888 0.014745662 0.032076217 0.14255236
0000d0 47 5d 5a bd 97 14 27 bd a4 e7 cc 3b 78 00 9f 3d
       -0.053311612 -0.04079112 0.0062531997 0.07763761
0000e0 ee 39 b2 bd 68 5e 3b bd e3 f8 b4 bb b9 3a 7d bd
       -0.087024555 -0.04574433 -0.0055228337 -0.06182358
0000f0 f9 4e 45 3c 86 41 92 3d 8f c2 1b 3d ed 2a 2c be
       0.012042754 0.07141404 0.038027342 -0.1681325
000100 83 1f c0 bd db f9 a0 bd a9 4e 1a bd 6a 80 8a 3c
       -0.093810104 -0.07860156 -0.037672672 0.016906936
000110 66 fe 92 3d cc 7a 33 3d b2 94 f9 39 60 a3 76 bd
       0.07177429 0.04381828 0.00047603768 -0.0602144
000120 e5 32 89 3c bf 36 60 bd b1 b7 69 bd 58 4e 95 3c
       0.016747901 -0.05473971 -0.057059947 0.018225834
000130 5b 3f ec bc 34 7c 5f bd 79 77 a2 3c 8c 99 01 be
       -0.028838804 -0.05456181 0.01983236 -0.1265623
000140 c6 65 0d bd d1 7b b5 3c b6 8f 59 3d 7b 9b 56 3c
       -0.034520887 0.022153767 0.05311557 0.013098593
000150 3f 0a 60 bd 3d 5f a8 bd 22 f0 dd 3d c9 7f cd bd
       -0.05469727 -0.0822129 0.10836817 -0.10034139
000160 99 1c 7c 3d 6f 56 4e bc 86 71 24 3a 28 b5 09 be
       0.06155071 -0.01259385 0.000627302 -0.13448012
000170 e5 e7 94 bc 64 41 ba bc 0f 4c f9 3c 69 7b 92 bb
       -0.018176982 -0.022736259 0.030431775 -0.004470278
000180 3e 8e e1 3c b7 44 c5 bb e4 3a 90 bd 72 a8 91 3b
       0.027533647 -0.0060201543 -0.070424825 0.004445129
000190 00 d1 cb 3d 2a 22 5e 3d 6e 3c 2b bd 80 43 49 be
       0.09951973 0.0542318 -0.041805677 -0.19654655
0001a0 0e a5 5b 3d 90 16 b1 bd 6f 20 a3 bd 73 b3 62 3d
       0.053624205 -0.086468816 -0.079651706 0.055346917
0001b0 51 bd 9c bb 2c 2c b8 3d ca 77 e9 3d 4b 31 c8 3c
       -0.0047833105 0.089928 0.11399801 0.024437567
0001c0 44 1a 14 3d 29 10 81 3c 82 c8 8f bc 04 fc 24 bd
       0.03615786 0.015754776 -0.017551664 -0.040279403
0001d0 53 c1 1f 3d b9 9c 09 bb 76 b7 31 bd 07 17 d3 bd
       0.039002728 -0.0020997955 -0.043387853 -0.103071265
0001e0 d5 66 9e bd 77 6d b2 3b b7 f7 e4 3d d8 44 d9 bd
       -0.077344574 0.005445178 0.1118006 -0.10608834
0001f0 79 8c 5d 3c 4e f5 82 bb 11 c5 1c bc fe ed ea bd
       0.013522261 -0.0039965278 -0.009568469 -0.11471175
000200 55 e8 26 bd 58 ba c0 bd 8c 4f 90 3d 37 55 89 bd
       -0.040748913 -0.09410542 0.07046422 -0.067057066
000210 b0 c4 63 ba 89 ea 83 bd 79 0f 7d 3d 95 3b c7 bd
       -0.00086886715 -0.064412184 0.061782334 -0.09728161
000220 1d a0 7b 3c b6 46 c8 bd 63 38 f3 3c a1 79 00 bd
       0.015357998 -0.09779112 0.029689973 -0.031365994
000230 ea 64 38 3d 39 e3 65 bd 18 7f 61 be e2 28 10 3d
       0.045018114 -0.0561249 -0.22021139 0.03519524
000240 40 f0 71 3b dc e6 81 bc 21 48 36 3c 5d 5b 8e bc
       0.0036916882 -0.015857153 0.011125595 -0.01737755
000250 13 8a e5 bd d5 4e 57 bc 4a c3 4e 3e 4d 86 53 bd
       -0.11207976 -0.013141354 0.20191684 -0.05164175
000260 29 43 12 3d 14 e9 de 3d 5b 11 98 3d 0e be 88 ba
       0.03570858 0.108843 0.07425185 -0.0010432617
000270 af 7c 68 3d 8b 5f 50 bd de f0 ff 3d cf f8 23 3d
       0.056759533 -0.050872367 0.12497114 0.040032204
000280 d3 1a 8c 3c 4e 28 dc bc 32 a6 c1 bc 01 0f 10 3e
       0.017102635 -0.026874688 -0.023638818 0.14068224
000290 be 9b ba 3b 95 37 41 bd 14 9c c5 bd 09 ad c9 bc
       0.0056948354 -0.047172148 -0.0964891 -0.024618642
0002a0 37 c0 a8 3d 55 7c fc 3d 81 0d 22 3e b5 16 85 be
       0.08239787 0.12328402 0.15825464 -0.25993887
0002b0 91 50 e6 bd c1 a6 8c 3c b8 82 02 bd 60 f1 41 3e
       -0.112458356 0.017169358 -0.031862944 0.18939734
0002c0 84 12 0b 3e a2 96 36 bd ba 6b 34 be b9 19 43 bc
       0.13581282 -0.04457725 -0.1761922 -0.011907988
0002d0 11 31 0c 3c 54 9f 01 bc 5c ac d7 bc dc 2a 2e bd
       0.00855662 -0.007911522 -0.026327305 -0.042521343
0002e0 d9 61 3c bd 5e 4e c3 bd 8e e4 7c bd 92 ef 75 3c
       -0.045991752 -0.09536432 -0.061741404 0.015010731
0002f0 5c db 95 3d 12 c6 d2 3c da a5 a4 bd 8d 05 02 bc
       0.0731723 0.025729213 -0.08039446 -0.007935894
000300 66 ce 17 3d 0f 62 1b bd d1 6e 11 bd c1 d0 96 bd
       0.03706207 -0.037935313 -0.035506073 -0.073640354
000310 c8 1f 71 3c c2 0d 4e bd 46 a4 36 3d c6 ff 84 3d
       0.01471705 -0.05030609 0.044590257 0.064940974
000320 61 6d c7 bb 43 5c 2d 3d 79 0d bf bd 98 66 4b 3d
       -0.006086037 0.042324316 -0.093287416 0.049658388
000330 eb b7 f7 ba fc 5a 6b 3c 5e 92 18 be 9a 65 34 bb
       -0.0018899416 0.014364954 -0.14899585 -0.002752638
000340 33 9c ab 3d df 4a b8 3d 41 13 61 bd 34 ff 9b bd
       0.08379402 0.089986555 -0.054950003 -0.076170355
000350 ab a7 13 3d 6c 80 de 3c 92 e8 18 be ab 7d 9c bc
       0.036048573 0.027160846 -0.14932469 -0.019102892
000360 dc 01 0c be ed d3 1e 3d a9 f1 56 3d 91 ed 9e bc
       -0.13672584 0.038776327 0.05247656 -0.01940039
000370 d6 3b a4 3d c3 ce 00 3e b0 c9 df 3c cd 5c db 3c
       0.08019225 0.12578873 0.027317852 0.02677765
000380 e3 b5 91 bd 0c af 32 bc 9b 46 c5 bd 66 9e df 3b
       -0.0711477 -0.010905992 -0.096326075 0.0068243025
000390 69 cc a0 bd 5e a2 9b bd c3 3f d2 3c af e2 da 3d
       -0.07851488 -0.075993285 0.02566517 0.10687768
0003a0 92 07 1a be 9c 57 a2 3d 57 3e 88 bd 5c ce 09 bd
       -0.1504195 0.079268664 -0.066525154 -0.033644065
0003b0 12 a8 01 3e 6e 45 11 bd b2 9d 5c bd 4c 6c 12 3e
       0.1266177 -0.035466604 -0.053861327 0.14299124
0003c0 f4 b2 50 bd 59 58 27 bd 87 1d 36 bc 20 59 53 bd
       -0.050951913 -0.04085574 -0.011115438 -0.051598668
0003d0 02 d8 90 3d 32 35 b6 bd 45 2c b2 bd 0b 87 03 3e
       0.0707245 -0.08896865 -0.0869985 0.12844484
0003e0 21 b2 b1 3d 8c f5 22 3d c2 00 34 3d 96 4c 8c bd
       0.086765535 0.039784953 0.043946035 -0.06850545
0003f0 e9 ef 9a bd c5 3d 1d be c5 5d 4e 3d 03 af ed 3b
       -0.075652905 -0.15355594 0.050382394 0.007253529

fc1.bias f4 [100]
000000 a6 98 d8 3d 07 96 a1 3d 38 84 b3 bd a5 e9 b7 3d
       0.105759904 0.078899436 -0.08765453 0.08980111
000010 42 10 50 bd ae 5b 56 be 21 26 3e 3d d8 b0 05 3d
       -0.050796755 -0.2093341 0.04642308 0.032639354
000020 47 39 22 3e 3a e7 3b bc 6a ef 24 3e b8 0b 7f 3e
       0.15842162 -0.011468703 0.16106954 0.24906814
000030 f1 b3 2e be 15 b6 da 3d 9a 3e 9c be f0 2d 51 be
       -0.1706083 0.10679261 -0.3051651 -0.2042768
000040 25 8f 6a 3d 6c f1 02 bb 74 0e 11 bd a6 0e d0 3c
       0.05726542 -0.0019980324 -0.035414174 0.02539761
000050 77 11 53 3d dc 8d 0a 3e bb 61 a7 bd 91 27 91 3d
       0.051530328 0.13530678 -0.081729375 0.07087625
000060 4f cc 95 bd 1c 25 97 bc 21 ad 2a bd 8e 1b 23 bd
       -0.073143594 -0.018450312 -0.041669015 -0.0398212
000070 71 b7 ab bd f1 2a e2 bd 95 c8 41 bd 19 b9 4d 3e
       -0.08384598 -0.11043347 -0.04731043 0.2009014
000080 96 b2 a7 bd c3 32 96 bd d5 ff 55 3d b6 4e 5a 3e
       -0.081883594 -0.07333901 0.052245934 0.21319088
000090 16 a7 2f 3d a8 e9 37 3e b0 a8 5b bd 8f 13 9e bd
       0.042883955 0.17960227 -0.05362767 -0.07718574
0000a0 bc 55 84 bd ea 79 e3 bd d0 4e 03 3e 65 95 bb bd
       -0.06461665 -0.11107238 0.12823033 -0.09159354
0000b0 61 1b c8 bd 85 62 39 3e 89 de 63 3d 9c f7 f2 bd
       -0.09770847 0.18103988 0.055632148 -0.11863634
0000c0 63 d4 30 bd d0 42 8d bd 08 3b 80 bd 8d 2e 3d 3d
       -0.043171298 -0.06897509 -0.06261259 0.046186972
0000d0 49 ee a7 3d b5 e6 8f bd 86 7f 3c bd 5c f0 1d bd
       0.08199746 -0.07026426 -0.046020053 -0.038559303
0000e0 43 d6 43 3b 61 ba 0e bd b6 ce a4 bc f1 48 3e be
       0.0029882349 -0.034845714 -0.020118099 -0.18582512
0000f0 bf 20 fa 3d 2e 1d 48 3e f0 6a bd bd 93 a2 1f be
       0.12213277 0.19542381 -0.09248912 -0.15589361
000100 87 0c d0 bd 32 be 32 3e 11 35 3d 3e 87 3d ef bc
       -0.101586394 0.17455366 0.18477274 -0.029204143
000110 7a d8 4c bd 5a b0 22 3e 13 e1 58 bc 2e ba 3b bd
       -0.050011136 0.15887585 -0.013237256 -0.04583185
000120 62 a3 81 bd ef 90 1f be ae af 1d 3e ba 41 ad 3d
       -0.06329991 -0.15582632 0.15399048 0.08459802
000130 94 3a 27 bd 57 d3 08 3d 8d db b5 bd a8 43 50 bd
       -0.04082735 0.033404674 -0.088797666 -0.050845772
000140 d3 8c e3 3c d5 7e 19 be 25 0d 08 3e 98 15 25 3d
       0.027777111 -0.14989789 0.13286264 0.040303797
000150 7f f3 7d bd 89 8f 20 bd 1d 6b a4 3c 1a 03 5b bd
       -0.061999794 -0.039199386 0.020070607 -0.053469755
000160 b0 8f 8a 3c 99 cb d2 bd 63 3c 72 bd c2 fb af bd
       0.016914219 -0.102927394 -0.05913962 -0.08592941
000170 b9 7a bd 3d 2b b9 86 be 09 ec c7 3d aa de 3d bd
       0.09251923 -0.26313147 0.09761817 -0.046354927
000180 ef fe fb 3d 35 c3 41 bd 46 14 d8 3d ef e1 78 bd
       0.12304484 -0.047305305 0.10550742 -0.060762342

fc2.weight f4 [10, 100]
000000 73 a5 6c bc 45 38 c8 3c 4e 15 28 3c 1e bb df 3c
       -0.014443743 0.024440894 0.010258986 0.027310904
000010 08 25 72 bc 8c 62 bd bc e8 c4 51 bd 9d 3d bf 3b
       -0.014779337 -0.02311828 -0.051213175 0.0058362023
000020 b3 a9 bc 3a 01 0e 8f 3c a0 5f 80 3d a1 95 74 bd
       0.0014393836 0.017462732 0.06268239 -0.05971301
000030 ef 80 ee 3b 61 42 14 bc d2 29 06 3e 9a 4d 2d bd
       0.0072785537 -0.009049029 0.1310189 -0.042310335
000040 2e ee ab b9 8b 3f d4 3d 79 c5 15 bd a9 90 96 3c
       -0.0003279312 0.10363682 -0.036565278 0.018379526
000050 4b 82 f8 3b 6b 6d 0b bd ea 7f 4e bb c5 78 c7 ba
       0.0075838915 -0.034039896 -0.0031509348 -0.0015218487
000060 3f a8 74 bc f3 ce e1 3c 1d d6 89 3c 2d 15 08 3b
       -0.014932691 0.027564501 0.01682573 0.0020764575
000070 f3 cc 25 bc 5b 46 07 3d 5e 7b ad 3c 60 f9 dd bb
       -0.0101196645 0.03302608 0.02117699 -0.0067741126
000080 49 76 6d 3b e3 b4 b7 3a 92 a4 41 bd dd fd f1 bc
       0.0036233834 0.00140157 -0.047276087 -0.029539997
000090 ef 43 98 bc 60 62 f2 3c 4a e2 56 3c e1 ee 16 bb
       -0.01858708 0.029587924 0.013115475 -0.0023030567
0000a0 b2 c0 98 3c 3a da 5a 3b 7c f5 3d bd ce 07 23 bd
       0.018646572 0.0033394233 -0.04637669 -0.039802365
0000b0 e4 00 35 b9 ff 48 34 3c 95 3d 4c bb ba 10 ba bc
       -0.00017261837 0.011003732 -0.0031164635 -0.022713054
0000c0 85 92 7f 3d 7d 69 0f 3c 6c 40 f0 bc cd 77 1b bc
       0.06239559 0.008753178 -0.029327594 -0.009489012
0000d0 89 0d f2 bb 3b e9 d5 39 d0 0d 73 bd a5 c5 f0 3a
       -0.0073868674 0.00040800296 -0.059339345 0.001836945
0000e0 4a 9e 46 3b 04 c0 1a bc f1 32 12 3c 41 39 b4 bc
       0.003030675 -0.009445194 0.008923278 -0.021999957
0000f0 f9 d6 4a bc 17 8e cb bb 27 30 51 bd 23 00 13 3c
       -0.012380355 -0.006212007 -0.051071312 0.008972201
000100 07 92 1b 3c b3 2d f2 bc 02 f7 d6 bb 10 e6 7f 3a
       0.009495265 -0.029562807 -0.0065602073 0.000976176
000110 85 2c c0 bc 47 ae 79 bd 1d 1a 6c 3c 90 e5 43 bc
       -0.023458729 -0.06095722 0.014410523 -0.011956587
000120 7c c3 b1 3c 1a 9e 72 3c 96 e4 3b bc c9 85 ca 3c
       0.02169966 0.014808202 -0.011468073 0.024721997
000130 b2 8b 9c 3c 83 be 38 bd d2 1a 22 3d ed bb c6 bb
       0.01910958 -0.04510356 0.03957636 -0.006064883
000140 3b db a3 bb cf bd 8a 3c 41 e7 19 bc 9d 24 37 3c
       -0.0050004995 0.01693621 -0.009393514 0.011178163
000150 31 7c 8a bd 60 74 66 3b c3 c7 be 3c e9 9f 3d 3c
       -0.06761969 0.003516458 0.023288613 0.01157377
000160 64 d7 0b 3c bb dd b5 bc 32 5f d6 ba 61 b2 0a bd
       0.00853524 -0.022200456 -0.0016355275 -0.03386152
000170 3c b1 0c 3d b2 2e ec 3c d4 f4 5a bc b4 8c a6 3c
       0.03434871 0.02883086 -0.013364036 0.020330764
000180 82 4a 81 3c d3 e5 d7 bb 5d 2d ef 3c 1c 7e fa 3c
       0.015782598 -0.0065886765 0.029196436 0.030577712
000190 47 24 1d 3c ce 23 2c 3c a6 44 b3 bc f6 7a 07 bd
       0.009591169 0.010506583 -0.02188332 -0.03307625
0001a0 7d 5c 3b 3c cd bf 80 3d d3 54 e2 bc 7f 0c 9f 3c
       0.011435625 0.06286583 -0.027628338 0.019415138
0001b0 6d dc c2 3c 9a 71 2c 3a 8c db e9 bc a5 e5 03 be
       0.023786748 0.0006578207 -0.02854707 -0.12880571
0001c0 a1 9f bb 3c 87 b9 3c 3d 9b 77 43 bd 61 e0 0c 3c
       0.022903265 0.04607537 -0.047721487 0.008598418
0001d0 f8 ab 8f 3b 93 bd 51 bc 1d 0b 82 ba 78 21 75 bb
       0.004384514 -0.012801546 -0.0009921525 -0.0037403982
0001e0 dd 03 8e 3c 3e ef 6b bb a7 2e 22 bd f6 b5 4d bd
       0.017335827 -0.0036000754 -0.039595272 -0.05022236
0001f0 57 37 11 bc 18 a2 02 bc 57 c1 06 3c 7b 7b f5 bb
       -0.008863292 -0.0079732165 0.008224807 -0.0074915267
000200 ed 08 0b bd 86 98 87 3d dd 9a a8 bc 69 fe 31 bd
       -0.03394406 0.066208884 -0.020581657 -0.043455515
000210 5b c5 f4 ba 0f 63 04 bc 8f b9 24 3d 13 16 27 bd
       -0.0018674539 -0.008080258 0.040216025 -0.040792536
000220 4c a0 cc bc 29 59 ea bb c0 be ae bb 2e 7f a0 3c
       -0.02497878 -0.007151742 -0.0053327978 0.019591894
000230 d3 dd dd 3b 4d f5 5e 3c 1e 3c d5 39 f9 02 2f 3c
       0.0067708283 0.013608289 0.00040671317 0.010681861
000240 0f 91 62 bb 46 96 50 3d 46 3f a7 b9 06 7a 61 bb
       -0.0034571325 0.050924562 -0.00031899865 -0.0034405007
000250 b6 1e 0a 3c 92 c5 0e bc 84 7c 91 bb 4b 5c 08 3c
       0.008430174 -0.008714097 -0.0044398922 0.008322786
000260 33 5b ab bb e9 31 0f bb 89 e6 06 3b 82 dc 47 3c
       -0.0052293777 -0.0021849817 0.0020584187 0.012198569
000270 37 6c bb bb eb 9b ef 3c 67 af 84 b9 a6 28 41 3d
       -0.0057196873 0.029249152 -0.00025307687 0.047157906
000280 52 40 42 bc 37 af 4e 3b 65 5a 03 bc 6d f7 19 3d
       -0.0118561555 0.0031537542 -0.008017157 0.03758948
000290 a3 e1 d5 bc a6 d7 62 3b ae 70 41 bc d4 40 eb bb
       -0.026108569 0.00346134 -0.01180665 -0.007179359
0002a0 92 92 8f 3c 46 65 04 3c 9b de 92 3b 42 34 bf bb
       0.017525945 0.008080786 0.004482103 -0.005835087
0002b0 5b 62 09 bc de d0 0a 3b a0 2f c6 3b 31 19 c5 bc
       -0.008385266 0.0021181623 0.006048158 -0.024059864
0002c0 7f 7f 7a bc d3 cb 26 bb c4 04 9d bb d2 d8 6e bb
       -0.0152891865 -0.0025451079 -0.004791828 -0.0036445153
0002d0 08 ab 0e bb 87 59 e2 3c 2e a1 e1 bb 9b 57 40 3c
       -0.0021769423 0.02763058 -0.006885669 0.011739637
0002e0 fc 70 b1 3d 8d 01 13 bc 16 64 f5 3c e6 88 02 bc
       0.08664128 -0.008972538 0.029954951 -0.007967209
0002f0 be c1 0a 3d 2e 63 04 3c 38 4b b8 bc f6 93 3a bc
       0.033876173 0.008080287 -0.022496805 -0.011387816
000300 44 dc cb 39 10 cd 12 3e 3a d5 b4 3c 44 30 11 bc
       0.00038883288 0.14336038 0.02207433 -0.008861605
000310 4d ed 48 bc 05 72 3d 3c ba 42 85 bd 66 59 d0 bb
       -0.012263608 0.011562829 -0.06506868 -0.0063583134
000320 fe 25 d4 3b c4 93 49 bc 87 8a 2c 3c 98 6e 3a bd
       0.0064742556 -0.0123032965 0.010531074 -0.045515627
000330 af 54 06 bc 54 59 ec bc bb 25 ec 3c 02 f9 06 bc
       -0.008198901 -0.028851189 0.028826585 -0.008238079
000340 fe 5c 1d bd 94 14 64 3c da 7b 8f 3d 73 92 53 3c
       -0.038418762 0.013920922 0.07006045 0.012913334
000350 66 7a 08 3d 6f f5 95 bc 58 c6 b2 bd c8 cc a3 3d
       0.033319853 -0.018305508 -0.08729237 0.07998043
000360 d4 1b ab 3d 28 ca ac 3c 62 2f eb 3b 9c bd a4 bc
       0.08354917 0.02109249 0.0071772793 -0.020109944
000370 66 12 94 3c e0 5f 1b bb e2 96 bd 3b 83 25 6d bc
       0.01807518 -0.002370827 0.005785809 -0.0144742755
000380 8a 11 0d 3d b4 33 44 3b 37 b6 94 3c 13 e4 90 3c
       0.034440555 0.0029938044 0.018153293 0.01768688
000390 88 48 83 bc 07 c5 74 3c 6a e0 d8 3c 16 d9 e0 3b
       -0.016025797 0.014939553 0.026474196 0.006861816
0003a0 74 5f d6 bd 4e a5 09 3c e6 86 12 bd 2d 1c a7 3c
       -0.10467425 0.008401228 -0.03577318 0.020399177
0003b0 45 99 3f bc f1 c7 b5 3c 50 98 15 3b ef 07 a5 3c
       -0.011694257 0.022190066 0.002282638 0.020145385
0003c0 ff 9b af bc b3 51 f3 3b 61 a0 94 3d 98 9a 04 ba
       -0.02143669 0.007425511 0.07257152 -0.00050584367
0003d0 2f 3b 63 3c 85 12 a8 3a f7 fc 67 3d 2a 2e e4 3c
       0.013869091 0.0012822902 0.05663773 0.027854044
0003e0 e6 d7 2e bc 8a 28 6c 3b ea 41 dc 3a 06 46 02 bb
       -0.010671591 0.0036034905 0.0016804312 -0.0019878163
0003f0 9a a0 65 3c 02 f9 37 bc 1d 3d 1c bc 89 6f cf 3a
       0.014015341 -0.011228802 -0.009536055 0.0015826087

fc2.bias f4 [10]
000000 75 eb 28 be 2b 94 12 be 6b 59 2d 3e 68 5a 24 be
       -0.1649607 -0.14314334 0.16928641 -0.16050112
000010 1e 63 4c 3c 04 e9 e2 3c 08 a7 1c be 7e 2f 4e 3e
       0.012474803 0.027699001 -0.15298092 0.20135304
000020 a9 92 04 3e 15 22 43 3e
       0.12946571 0.1905597
