model/modelFCNet/LfwNet/RReLU/FCNet_epoch3_Cluster23.pkl (torch_old, 107634 bytes, 4 tensors)

fc1.weight f4 [100, 256]
-0.084781654 0.005488483 0.10174805 0.19577388 -0.08089805 -0.07602849 -0.12670846 -0.11305901
0.058502298 -0.019940421 -0.083373085 -0.105480455 0.13058713 -0.012624883 -0.103043996 0.0070763775
0.090935856 -0.0017046276 -0.20119451 0.021318471 -0.14493693 -0.06430097 -0.283042 -0.014931131
-0.097902484 -0.057527266 0.03157346 0.052914478 -0.10270798 -0.0534578 -0.06409976 0.07366983
-0.030744743 -0.040929213 -0.005408241 0.115358405 0.02331222 0.025802266 0.091717385 0.0068469504
0.047129173 -0.057501487 -0.022137836 0.05517274 0.108283184 0.021558248 0.0050142044 0.020640783
-0.049311988 0.009374233 0.035911806 0.14681518 -0.067688964 -0.0512638 0.013430883 0.070525944
-0.09594004 -0.037621282 -0.015701268 -0.06532195 0.016629322 0.064092115 0.026193231 -0.17113289
-0.09132315 -0.08237895 -0.038621783 0.0078089414 0.06380632 0.040755194 -0.012401247 -0.06604577
0.024653122 -0.058162943 -0.06465269 0.01417605 -0.031318814 -0.059787463 0.013092113 -0.12718078
-0.037996717 0.031628083 0.05015594 0.015765194 -0.058411077 -0.098344386 0.101595394 -0.10226243
0.07185104 -0.009476282 0.0073017008 -0.116730936 -0.023780959 -0.016830388 0.024251904 0.0013388472
0.020053444 -0.0025686256 -0.067826614 0.005259193 0.09800725 0.051025547 -0.049116198 -0.19175982
0.046981618 -0.09060975 -0.07418979 0.04429657 -0.002677032 0.08032092 0.1066174 0.026952757
0.028825382 0.016798673 -0.027273584 -0.03674289 0.03489928 -2.071177e-05 -0.037235595 -0.09919225
-0.07650768 0.0031813607 0.11165809 -0.11177066 -0.00033821884 -0.0056075403 -0.011926986 -0.10338218
-0.034996513 -0.1010314 0.06803267 -0.047828637 -0.00927002 -0.065575846 0.057375368 -0.09321711
0.001414 -0.095678724 0.025794385 -0.037656065 0.039993078 -0.062105287 -0.21837606 0.03788125
-0.00048008174 -0.017102277 0.0010284514 -0.014831002 -0.11315829 -0.011325422 0.19884613 -0.053039752
0.033628754 0.12079821 0.07602885 -0.0055243485 0.051482495 -0.04952556 0.13303728 0.038890563
0.017370604 -0.019008348 -0.025721705 0.13161533 0.0012185741 -0.039381836 -0.09213383 -0.022570696
0.094310805 0.11547854 0.15466857 -0.24938878 -0.11505325 0.014820954 -0.039486125 0.18750045
0.12185093 -0.03755108 -0.16703358 -0.012715139 0.0076896045 -0.015273691 -0.030006146 -0.03779133
-0.04080187 -0.10418535 -0.06291511 0.019837333 0.06720227 0.022274587 -0.08512995 -0.019540478
0.054113336 -0.037981257 -0.046269283 -0.06959238 0.017367994 -0.04007376 0.041524112 0.063880384
-0.006416084 0.04751298 -0.09536506 0.048196502 -0.0053540412 0.021024698 -0.14214282 -0.009042177
0.08398038 0.09703351 -0.058118086 -0.08028221 0.040235765 0.03468958 -0.15515295 -0.029673483
-0.13406004 0.064375065 0.0434494 -0.022449512 0.076903 0.13945624 0.01876859 0.016291946
-0.06825149 -0.0054815128 -0.07291681 -0.011766425 -0.08548464 -0.077984415 0.0037438045 0.11724152
-0.15742975 0.081278756 -0.065456524 -0.04374853 0.12802328 -0.03237764 -0.05483199 0.14331426
-0.05458176 -0.033336308 -0.0117795495 -0.064409606 0.07202556 -0.07830397 -0.08477497 0.12494015
0.09202046 0.032889087 0.03749414 -0.059171673 -0.07133837 -0.1562621 0.046031594 0.01131714
00000000: 01a2 adbd bbd8 b33b 4861 d03d f378 483e
00000010: e0ad a5bd d3b4 9bbd ddbf 01be 7b8b e7bd
00000020: 1ba0 6f3d 185a a3bc 82bf aabd 2306 d8bd
00000030: a2b8 053e 99d8 4ebc bb08 d3bd f5e0 e73b
00000040: 943c ba3d d06d dfba ef05 4ebe 13a4 ae3c
00000050: 596a 14be 3ab0 83bd e2ea 90be b4a1 74bc
00000060: 1981 c8bd b6a1 6bbd 2c53 013d dabc 583d
00000070: 9058 d2bd 91f6 5abd bc46 83bd 35e0 963d
00000080: 66dc fbbc 64a5 27bd 9d37 b1bb 0741 ec3d
00000090: 45f9 be3c 465f d33c 53d6 bb3d 625c e03b
000000a0: 850a 413d ae86 6bbd 685a b5bc d0fc 613d
000000b0: 93c3 dd3d ec9a b03c 324e a43b dc16 a93c
000000c0: 5efb 49bd 6296 193c 4218 133d b856 163e
000000d0: 83a0 8abd fef9 51bd 350d 5c3c e86f 903d
000000e0: 367c c4bd c618 1abd f29f 80bc 84c7 85bd
000000f0: 373a 883c ba42 833d 3093 d63c 763d 2fbe
00000100: a207 bbbd 4cb6 a8bd e031 1ebd 26e2 ff3b
00000110: e3ac 823d ebee 263d 9a2e 4bbc 0143 87bd
00000120: 58f5 c93c 443c 6ebd a168 84bd aa42 683c
00000130: 2848 00bd b3e3 74bd 4d80 563c ae3b 02be
00000140: 72a2 1bbd 738c 013d 5170 4d3d 0226 813c
00000150: 7440 6fbd c868 c9bd 3f11 d03d f76e d1bd
00000160: a326 933d 6842 1bbc 1b43 ef3b a110 efbd
00000170: 49d0 c2bc e2df 89bc eeab c63c 427c af3a
00000180: 1f47 a43c 6356 28bb aee8 8abd 4f55 ac3b
00000190: 06b8 c83d 2a00 513d 112e 49bd b05c 44be
000001a0: cc6f 403d 9b91 b9bd d1f0 97bd 5270 353d
000001b0: 2571 2fbb 4b7f a43d 395a da3d 07cc dc3c
000001c0: 3523 ec3c 5f9d 893c da6c dfbc b67f 16bd
000001d0: 8cf2 0e3d 30be adb7 5a84 18bd 4e25 cbbd
000001e0: 0fb0 9cbd 607e 503b ffac e43d 04e8 e4bd
000001f0: f752 b1b9 75bf b7bb 6869 43bc 09ba d3bd
00000200: 8158 0fbd 8de9 cebd b654 8b3d f6e7 43bd
00000210: 48e1 17bc a14c 86bd 6f02 6b3d 9de8 bebd
00000220: f855 b93a 35f3 c3bd bf4e d33c 3f3d 1abd
00000230: c8cf 233d 1d62 7ebd f99d 5fbe 5f29 1b3d
00000240: 7bb3 fbb9 131a 8cbc 1acd 863a bbfd 72bc
00000250: 89bf e7bd 438e 39bc 529e 4b3e 3640 59bd
00000260: 4ebe 093d 0d65 f73d 04b5 9b3d 9805 b5bb
00000270: 4fdf 523d 50db 4abd ed3a 083e b64b 1f3d
00000280: cc4c 8e3c 65b7 9bbc 53b6 d2bc 2bc6 063e
00000290: 90b8 9f3a d94e 21bd a9b0 bcbd 2ee6 b8bc
000002a0: 0626 c13d 0380 ec3d 7061 1e3e c65f 7fbe
000002b0: 0aa1 ebbd 96d3 723c 34bc 21bd 1e00 403e
000002c0: fb8c f93d 29cf 19bd da0a 2bbe 2953 50bc
000002d0: 14f9 fb3b 813e 7abc 73cf f5bc 15cb 1abd
000002e0: dd1f 27bd 215f d5bd a3d9 80bd e781 a23c
000002f0: 58a1 893d 3279 b63c 9c58 aebd 5a13 a0bc
00000300: f2a5 5d3d 3c92 1bbd dc84 3dbd 7386 8ebd
00000310: 5347 8e3c 6224 24bd 3015 2a3d b8d3 823d
00000320: 033e d2bb f89c 423d c24e c3bd b269 453d
00000330: f470 afbb fd3b ac3c e38d 11be a425 14bc
00000340: e8fd ab3d 81b9 c63d 3b0d 6ebd 006b a4bd
00000350: 42ce 243d a916 0e3d 6ae0 1ebe ce15 f3bc
00000360: 0947 09be 13d7 833d 00f8 313d 0ae8 b7bc
00000370: 527f 9d3d 9ecd 0e3e 96c0 993c b076 853c
00000380: 70c7 8bbd 439e b3bb 6955 95bd f7c7 40bc
00000390: 9212 afbd 4bb6 9fbd 9e5a 753b 521c f03d
000003a0: 4435 21be 7a75 a63d 120e 86bd a931 33bd
000003b0: 8918 033e 6b9e 04bd 8297 60bd f9c0 123e
000003c0: 2091 5fbd a78b 08bd 03ff 40bc 2fe9 83bd
000003d0: 2382 933d d55d a0bd 809e adbd 9fe0 ff3d
000003e0: 3975 bc3d b5b6 063d 7593 193d ff5d 72bd
000003f0: da19 92bd 2c03 20be a08b 3c3d 876b 393c

fc1.bias f4 [100]
0.10784537 0.08123397 -0.088571444 0.095956944 -0.052128244 -0.21152638 0.04756304 0.034021836
0.160326 -0.012733541 0.16044569 0.25159487 -0.17096408 0.104958445 -0.30368233 -0.20180866
0.053015016 -0.0035088924 -0.031377863 0.028482582 0.049184278 0.13771576 -0.08244893 0.07170131
-0.07585429 -0.018040493 -0.042934146 -0.039172124 -0.08209708 -0.11169802 -0.04896589 0.20245123
-0.0792397 -0.07517808 0.053781554 0.21506679 0.04963857 0.17918846 -0.053646896 -0.07555823
-0.062326945 -0.110975355 0.13103205 -0.09203301 -0.0964381 0.18051527 0.054154407 -0.11785232
-0.043737594 -0.07431815 -0.06376879 0.043277398 0.08161178 -0.069584936 -0.043985955 -0.03903407
0.0051324465 -0.03643694 -0.021821009 -0.18613319 0.123536475 0.19289571 -0.089453 -0.15880255
-0.10062963 0.17675395 0.18616365 -0.033499006 -0.051291905 0.15849306 -0.018603839 -0.04346355
-0.06445642 -0.15556575 0.14864428 0.084091395 -0.039969116 0.036192656 -0.09145828 -0.05422204
0.03000291 -0.14743704 0.13228118 0.03810928 -0.06082665 -0.037081406 0.022851944 -0.0526624
0.016455527 -0.10284768 -0.061425425 -0.08645548 0.089992 -0.26517746 0.09272086 -0.046206206
0.12442329 -0.046446666 0.10921401 -0.064327136
00000000: 09de dc3d ff5d a63d f264 b5bd 1385 c43d
00000010: 6d84 55bd 5f9a 58be 76d1 423d 7b5a 0b3d
00000020: 802c 243e 58a0 50bc e04b 243e 0bd1 803e
00000030: 3511 2fbe 74f4 d63d 407c 9bbe eea6 4ebe
00000040: 4626 593d 72f5 65bb 1386 00bd 4e54 e93c
00000050: 7475 493d 5c05 0d3e fcda a8bd 23d8 923d
00000060: 7e59 9bbd a8c9 93bc b7db 2fbd f372 20bd
00000070: 8422 a8bd eec1 e4bd 7590 48bd 604f 4f3e
00000080: 6d48 a2bd f7f6 99bd 0c4a 5c3d 783a 5c3e
00000090: d051 4b3d 2e7d 373e d9bc 5bbd 46be 9abd
000000a0: 8a4a 7fbd 0c47 e3bd 442d 063e ce7b bcbd
000000b0: 5781 c5bd ffd8 383e 03d1 5d3d 8f5c f1bd
000000c0: 3126 33bd 1d34 98bd 3699 82bd a443 313d
000000d0: 1424 a73d 8c82 8ebd 9e2a 34bd 30e2 1fbd
000000e0: 152e a83b e73e 15bd f9c1 b2bc b399 3ebe
000000f0: b100 fd3d 7486 453e 2233 b7bd 239d 22be
00000100: e816 cebd fdfe 343e afa1 3e3e 4136 09bd
00000110: 7617 52bd 014c 223e 1467 98bc d606 32bd
00000120: ba01 84bd a14c 1fbe 3536 183e 1c38 ac3d
00000130: a8b6 23bd c03e 143d 7b4e bbbd ee17 5ebd
00000140: aac8 f53c bcf9 16be b874 073e 7a18 1c3d
00000150: 5e25 79bd ace2 17bd 0034 bb3c 87b4 57bd
00000160: becd 863c cea1 d2bd 3a99 7bbd 920f b1bd
00000170: ba4d b83d 57c5 87be 6fe4 bd3d b842 3dbd
00000180: a3d1 fe3d dc3e 3ebd 98ab df3d f2bd 83bd

fc2.weight f4 [10, 100]
-0.017433865 0.012334184 0.02123514 0.023820668 -0.007766044 -0.0259892 -0.05575967 0.0012048639
0.001998063 0.005480382 0.061319236 -0.060368795 0.009106312 -0.010968098 0.12998636 -0.041264784
0.0039440603 0.10124669 -0.050615706 0.01713238 0.007425788 -0.031234542 0.006473928 -0.0053164787
0.0031983815 0.029554961 0.011543246 -0.0018798994 -0.0030086979 0.030416114 0.012093455 -0.006541231
0.0043822182 0.0069798967 -0.05045729 -0.028497063 -0.020409582 0.028782582 0.0022471768 -0.006952348
0.020235363 0.004774333 -0.037358142 -0.032548726 0.0018042716 0.015782831 0.0003419091 -0.013848072
0.05652204 0.010275727 -0.022352047 -0.007832632 -0.013535529 -5.6006746e-05 -0.044624534 -0.0065703834
0.0012482186 -0.0034717098 0.0213792 -0.020861657 -0.022851206 -0.0046843057 -0.051952496 0.023360275
0.019896181 -0.040538453 -0.0014592196 0.004609052 -0.009096126 -0.065919004 0.023145813 -0.014430456
0.025293509 0.007384501 -0.011390512 0.014345594 0.026718928 -0.039941203 0.037072126 -0.013776189
-0.010805528 0.020274209 -0.008839664 0.00980322 -0.059882537 0.008587774 0.025254982 0.0009348043
0.00040278237 -0.018178022 -0.004131215 -0.024906836 0.029190218 0.034544837 -0.007148023 0.025592512
0.007985626 -0.0081837345 0.039749607 0.02843317 0.011032119 0.008513792 -0.015429509 -0.03179924
-0.0020178973 0.06739876 -0.019735135 0.013318485 0.022116657 -0.0097658085 -0.029053742 -0.12838358
0.018949484 0.048309352 -0.047287453 0.014385817 0.006235616 -0.01212071 0.0008733649 -0.004763082
0.017584603 -0.01221542 -0.03190381 -0.043879263 -0.01307766 -0.02067559 0.0043753176 0.0029462122
-0.020430382 0.06561607 -0.010778464 -0.046489377 -0.0021289794 -0.009311295 0.04256499 -0.04174752
-0.021306107 -0.0072520236 -0.0010793917 0.018457508 -0.0011223219 0.022011915 0.0046235872 0.01391444
0.0049357247 0.052043263 -0.006149155 0.003575256 0.011662802 -0.010277667 -0.0044745975 0.008141863
-0.007539209 0.0035056167 -0.0057444465 0.025097232 -0.005222484 0.02127408 -0.00095739245 0.04838782
-0.018311601 0.00421426 -0.014500467 0.03461133 -0.024092363 0.0061355936 -0.013311203 -0.0067532673
0.023847746 0.009152839 0.008401418 0.0035050714 -0.0040621688 0.0017533808 0.008803118 -0.020494394
0.0018346052 -0.014270804 -0.0032697627 -0.0043180943 -0.0008902228 0.03158084 -0.010344904 0.015115242
0.08984202 -0.015172431 0.032998934 0.00066956703 0.033465743 0.019825088 -0.023064896 -0.006529162
-0.0072097955 0.14345403 0.015940206 -0.0051604835 -0.009002969 0.0139550725 -0.06164111 -0.001598244
0.0026379814 -0.0074139345 0.016790966 -0.048404925 -0.010866533 -0.029988265 0.033482444 -0.0054971506
-0.03860182 0.020269165 0.07169912 0.01337398 0.028002257 -0.02273223 -0.08961714 0.07835328
0.07624859 0.016704854 0.0077804257 -0.021479784 0.016833443 0.0029537769 0.0077339723 -0.008782458
0.025970433 -0.003989249 0.022137633 0.00419585 -0.01787974 0.016002899 0.017349845 0.0060405745
-0.10260767 0.0080339145 -0.039439194 0.020654691 -0.0085925255 0.022981877 0.005510853 0.0125682885
-0.0076122927 0.016669584 0.07096673 -0.006755872 0.013588903 -0.0037380531 0.052819677 0.028928597
-0.013225263 -0.0037823545 0.015821114 -0.007212391 0.0102486145 -0.016660156 -0.002980725 0.00097136106
00000000: 77d1 8ebc 5115 4a3c 51f5 ad3c 9023 c33c
00000010: 4c7a febb 4ee7 d4bc 4064 64bd 86ec 9d3a
00000020: eff1 023b c794 b33b e129 7b3d 4545 77bd
00000030: a432 153c 8ab3 33bc 251b 053e 4305 29bd
00000040: 2d3d 813b 6d5a cf3d 6a52 4fbd 3459 8c3c
00000050: 0654 f33b 95df ffbc 3f23 d43b db35 aebb
00000060: f09b 513b 3f1d f23c e21f 3d3c f566 f6ba
00000070: 932d 45bb 372b f93c a023 463c d357 d6bb
00000080: b698 8f3b 9eb7 e43b 4eac 4ebd ac72 e9bc
00000090: ff31 a7bc 73c9 eb3c 5f45 133b 86d0 e3bb
000000a0: a2c4 a53c 0272 9c3b da04 19bd d051 05bd
000000b0: 4f7d ec3a ff4a 813c 4342 b339 06e3 62bc
000000c0: a883 673d 865b 283c a41b b7bc 7154 00bc
000000d0: 20c4 5dbc c9e8 6ab8 37c8 36bd 5f4c d7bb
000000e0: 449b a33a a085 63bb 6f23 af3c 11e6 aabc
000000f0: 7432 bbbc ce7e 99bb 24cc 54bd 0c5e bf3c
00000100: 51fd a23c a60b 26bd 4943 bfba 8807 973b
00000110: eb07 15bc 8b00 87bd 4a9c bd3c b86d 6cbc
00000120: 5534 cf3c aff9 f13b 459f 3abc c809 6b3c
00000130: a7e1 da3c 6399 23bd f1d8 173d 86b5 61bc
00000140: ab09 31bc 1916 a63c 3dd4 10bc af9d 203c
00000150: 6447 75bd bcb3 0c3c 89e3 ce3c a80d 753a
00000160: 892c d339 13ea 94bc 255f 87bb 6c09 ccbc
00000170: 5320 ef3c e37e 0d3d f739 eabb 63a7 d13c
00000180: 25d6 023c 1215 06bc 7cd0 223d aeec e83c
00000190: 10c0 343c 6f7d 0b3c 0dcc 7cbc eb3f 02bd
000001a0: b33e 04bb 5c08 8a3d 94ab a1bc c635 5a3c
000001b0: fe2d b53c c500 20bc 1d02 eebc fc76 03be
000001c0: f33b 9b3c 07e0 453d 7db0 41bd 7db2 6b3c
000001d0: 2354 cc3b f195 46bc 87f2 643a a113 9cbb
000001e0: 960d 903c 2f23 48bc 92ad 02bd beba 33bd
000001f0: af43 56bc db5f a9bc d35e 8f3b 3d15 413b
00000200: 9e5d a7bc b861 863d 2898 30bc a56b 3ebd
00000210: 5986 0bbb 678e 18bc a158 2e3d 73ff 2abd
00000220: 258a aebc 62a2 edbb 607a 8dba 3334 973c
00000230: e01a 93ba 5552 b43c 7681 973b 64f9 633c
00000240: dcbb a13b 512b 553d da7e c9bb d84e 6a3b
00000250: 5615 3f3c a963 28bc a59f 92bb 7365 053c
00000260: 780b f7bb 7dbe 653b e93b bcbb b698 cd3c
00000270: 5f21 abbb fb46 ae3c 85f9 7aba 4f32 463d
00000280: 3602 96bc c617 8a3b 5e93 6dbc 9cc4 0d3d
00000290: 595d c5bc 170d c93b 3b17 5abc 834a ddbb
000002a0: 595c c33c caf5 153c 1aa6 093c 57b5 653b
000002b0: f11b 85bb b2d1 e53a f43a 103c dce3 a7bc
000002c0: 2377 f03a 17d0 69bc 8449 56bb cd7e 8dbb
000002d0: d75d 69ba e95a 013d ac7d 29bc eca5 773c
000002e0: 18ff b73d ca95 78bc e429 073d e285 2f3a
000002f0: 6013 093d 3968 a23c 98f2 bcbc 95f2 d5bb
00000300: 2640 ecbb 9de5 123e 0995 823c 4619 a9bb
00000310: 3081 13bc d1a3 643c 637b 7cbd 2b7c d1ba
00000320: fce1 2c3b 97f0 f2bb 358d 893c 3e44 46bd
00000330: 8b09 32bc f3a9 f5bc e324 093d 7121 b4bb
00000340: f11c 1ebd 850b a63c fdd6 923d 8a1e 5b3c
00000350: fd64 e53c f138 babc 3189 b7bd af77 a03d
00000360: 3928 9c3d 9ed8 883c f1f2 fe3b 5ff6 afbc
00000370: 4ae6 893c 2794 413b 436d fd3b 4ce4 0fbc
00000380: f2bf d43c 3fb8 82bb fb59 b53c 577d 893b
00000390: 8878 92bc 8318 833c 4321 8e3c 03f0 c53b
000003a0: f823 d2bd aea0 033c fe8a 21bd 0734 a93c
000003b0: aac7 0cbc 7d44 bc3c 6394 b43b 39eb 4d3c
000003c0: 8a70 f9bb a78e 883c 0157 913d 5d60 ddbb
000003d0: fda3 5e3c 20fa 74bb 7259 583d aafb ec3c
000003e0: c6ae 58bc 61e1 77bb 489b 813c ec55 ecbb
000003f0: cee9 273c e17a 88bc 4458 43bb f0a2 7e3a

fc2.bias f4 [10]
-0.16574083 -0.14507516 0.16983266 -0.16161236 0.011250877 0.028417727 -0.15318699 0.19901916
0.12792887 0.189209
00000000: f7b7 29be 958e 14be 9de8 2d3e b67d 25be
00000010: 9955 383c 4bcc e83c 0ddd 1cbe aecb 4b3e
00000020: c9ff 023e 01c0 413e
