model/modelFCNet/LfwNet/RReLU/FCNet_epoch3_Cluster47.pkl (torch_old, 107634 bytes, 4 tensors)

fc1.weight f4 [100, 256]
0	0xbd9b4611	-0.075817235
1	0x3c574590	0.013139144
2	0x3dbd8749	0.09254319
3	0x3e3cdcc9	0.18443598
4	0xbda49886	-0.08036904
5	0xbd9c02af	-0.07617699
6	0xbdf50b8a	-0.119650915
7	0xbdf2f050	-0.11862242
8	0x3d4be83a	0.049782015
9	0xbc8e19ae	-0.01734623
10	0xbda55421	-0.08072687
11	0xbdcd6a46	-0.10030036
12	0x3e042c9c	0.12907642
13	0xbc539fd4	-0.012916524
14	0xbdd9fa10	-0.10643399
15	0x3be6ccbc	0.007043449
16	0x3dc385d7	0.09547012
17	0x3b8bd8c8	0.0042677857
18	0xbe4fa398	-0.2027725
19	0x3c8664d8	0.016405508
20	0xbe098faf	-0.13433717
21	0xbd7b7009	-0.061386142
22	0xbe8f6b67	-0.2801163
23	0xbc8aa8cf	-0.016926197
24	0xbdc0cf88	-0.094145834
25	0xbd3d7248	-0.046251565
26	0x3cf67772	0.030086253
27	0x3d5078a3	0.0508963
28	0xbdd43f3d	-0.10363624
29	0xbd5849a2	-0.052804597
30	0xbd503d34	-0.050839618
31	0x3d9ad603	0.07560351
32	0xbc92d268	-0.017922595
33	0xbd1fedb0	-0.039045036
34	0xbbf13e41	-0.0073621576
35	0x3e052bd7	0.13005005
36	0x3cb94adc	0.022618704
37	0x3cf715ad	0.030161703
38	0x3dca496d	0.09877286
39	0x3b5b6bfc	0.0033481112
40	0x3d270327	0.04077449
41	0xbd48f7bf	-0.049064394
42	0xbcf7bc86	-0.030241262
43	0x3d766cd8	0.060162395
44	0x3df550eb	0.119783245
45	0x3cc0c70b	0.023532411
46	0x3b7a60a2	0.003820457
47	0x3c669ae9	0.014075019
48	0xbd326d35	-0.04356118
49	0x3bf9fe1c	0.007629169
50	0x3d08ac13	0.033367228
51	0x3e1635f8	0.14669025
52	0xbd77b510	-0.06047541
53	0xbd4b3688	-0.049612552
54	0x3bec789b	0.0072165257
55	0x3d9c44be	0.07630299
56	0xbdb58af3	-0.08864393
57	0xbd4e4885	-0.05036213
58	0xbc07b86d	-0.008283717
59	0xbd8203e8	-0.06348401
60	0x3bf9be0e	0.0076215332
61	0x3d817eea	0.06323035
62	0x3cfd1996	0.03089599
63	0xbe33dc8b	-0.17564599
64	0xbdc55b87	-0.09636598
65	0xbdb0a2c8	-0.08624798
66	0xbd172781	-0.03690291
67	0xbbcd7974	-0.006270582
68	0x3d7d5d0c	0.061856315
69	0x3d39b05a	0.045334198
70	0xbc4c67c0	-0.012475908
71	0xbd881e85	-0.06646446
72	0x3cb25937	0.021771057
73	0xbd5fc7be	-0.05463385
74	0xbd882c99	-0.06649131
75	0x3c5ca969	0.013468125
76	0xbce81b63	-0.028333372
77	0xbd5f10a5	-0.054459233
78	0x3c9139ca	0.017727751
79	0xbdfd2414	-0.12360397
80	0xbd09d25f	-0.03364789
81	0x3cd0c22c	0.025483213
82	0x3d5e27d8	0.054237217
83	0x3c7979d3	0.015226799
84	0xbd4bb7ce	-0.049735837
85	0xbda78c29	-0.0818103
86	0x3dc9aceb	0.098474346
87	0xbdbbaa96	-0.09163396
88	0x3d8713dd	0.065955855
89	0xbba8fa15	-0.005156765
90	0x3c710c71	0.014712439
91	0xbe00d3bf	-0.12580775
92	0xbcc2ac46	-0.023763787
93	0xbc6e4657	-0.0145431375
94	0x3ceef1e7	0.029168082
95	0x3a1369da	0.0005623378
96	0x3cc55318	0.024087474
97	0xbb9eefd8	-0.004850369
98	0xbd81cda5	-0.06338052
99	0xbb5e4697	-0.0033916587
100	0x3da6a6b9	0.081372686
101	0x3d5d790e	0.054070525
102	0xbd375ea4	-0.04476799
103	0xbe43851e	-0.19093749
104	0x3d4922ef	0.04910558
105	0xbdbc1cb8	-0.09185165
106	0xbd8e0172	-0.069338694
107	0x3d33d30b	0.043902438
108	0x3b26937d	0.00254175
109	0x3dbfb59c	0.09360811
110	0x3dd13803	0.102157615
111	0x3cc0a590	0.023516446
112	0x3cf799a4	0.030224629
113	0x3c8465db	0.01616185
114	0xbcb6396a	-0.022244174
115	0xbd2219bc	-0.039575323
116	0x3d175b85	0.036952514
117	0x3c1e3e2d	0.009658379
118	0xbd2bd746	-0.041953348
119	0xbdde6265	-0.10858611
120	0xbda6c85c	-0.08143684
121	0x37d39c9d	2.5226089e-05
122	0x3de3ed3b	0.111292325
123	0xbddda8e6	-0.108232304
124	0xbbebd992	-0.0071975673
125	0xbb27c897	-0.0025601739
126	0xbc71b1f2	-0.014751898
127	0xbde44fd9	-0.11148042
128	0xbd24639c	-0.040134057
129	0xbdc279a1	-0.09495855
130	0x3d833b50	0.06407797
131	0xbd5ddcbe	-0.054165594
132	0xbcb5c88f	-0.02219036
133	0xbd929db5	-0.071589865
134	0x3d7873f3	0.060657453
135	0xbdd79733	-0.10526886
136	0x3be48915	0.0069743493
137	0xbdca7697	-0.098859005
138	0x3d179481	0.03700686
139	0xbd159bf2	-0.036525674
140	0x3d29eb68	0.041484267
141	0xbd77e0f8	-0.06051728
142	0xbe5d64e1	-0.21620513
143	0x3d102aee	0.03519719
144	0x3b09b94f	0.0021014994
145	0xbc938c96	-0.018011373
146	0xbc23dc84	-0.0100013055
147	0xbc99705d	-0.018730337
148	0xbdeb6caf	-0.11495339
149	0xbc929434	-0.017892934
150	0x3e48159a	0.1953949
151	0xbd5cadf7	-0.053876843
152	0x3d0bcf46	0.03413322
153	0x3de3ba3e	0.11119507
154	0x3da50386	0.08057313
155	0xbb8c93ae	-0.0042900657
156	0x3d62ef98	0.055404276
157	0xbd435f72	-0.047698446
158	0x3e089fc9	0.13342203
159	0x3d0a5963	0.033776652
160	0x3ca8dced	0.020613158
161	0xbcc9d542	-0.024637822
162	0xbcf0ff30	-0.029418558
163	0x3e0a5c34	0.13511735
164	0x3c2173c9	0.0098542655
165	0xbd2938aa	-0.041313805
166	0xbdc18776	-0.09449665
167	0xbcb193b4	-0.021676876
168	0x3dc334c3	0.09531548
169	0x3deea52b	0.11652597
170	0x3e19dbbc	0.15025228
171	0xbe81f73f	-0.25383946
172	0xbde0188e	-0.109421834
173	0x3c64790b	0.0139448745
174	0xbd0cf186	-0.034410022
175	0x3e3e24ff	0.185688
176	0x3df733f1	0.12070454
177	0xbd2cdefe	-0.04220485
178	0xbe28e697	-0.16494213
179	0xbc621a42	-0.013800206
180	0xbb57e7ef	-0.003294464
181	0xbc1c7e45	-0.009551589
182	0xbd24030a	-0.04004196
183	0xbd37a9c3	-0.04483963
184	0xbd1c51fd	-0.038164128
185	0xbdd424b2	-0.103585616
186	0xbd8b0996	-0.06788938
187	0x3c929bfd	0.017896647
188	0x3d8a4e7e	0.067532524
189	0x3cb2ae12	0.021811519
190	0xbdca611c	-0.098818034
191	0xbc6873d1	-0.014187769
192	0x3d459792	0.04824025
193	0xbcfb9e0f	-0.030715017
194	0xbd315300	-0.043292046
195	0xbd849a17	-0.06474703
196	0x3cb27d11	0.021788152
197	0xbd25fa89	-0.040522132
198	0x3d26f4ab	0.040760677
199	0x3d6c384c	0.057670876
200	0xbbdfecd4	-0.006833652
201	0x3d48ac39	0.04899237
202	0xbdc02c35	-0.09383432
203	0x3d68663f	0.056738134
204	0xbc4331b1	-0.011913703
205	0x3c88240f	0.016618757
206	0xbe15d88e	-0.1463339
207	0xbc0bb895	-0.0085278945
208	0x3da941be	0.082644925
209	0x3dded2fc	0.10880086
210	0xbd6d8305	-0.057986278
211	0xbda0752f	-0.07834851
212	0x3d2cc9b5	0.04218455
213	0x3d0d7b79	0.03454158
214	0xbe1e4515	-0.1545604
215	0xbcba8ede	-0.022773203
216	0xbe089efb	-0.13341896
217	0x3d7e67e7	0.062110808
218	0x3d3b7d6f	0.04577392
219	0xbccfdf9e	-0.025375184
220	0x3d952d64	0.07284048
221	0x3e0abff1	0.13549782
222	0x3cb3aea5	0.021933863
223	0x3cc8d2b5	0.024514535
224	0xbd825153	-0.063631676
225	0xbc97104c	-0.018440388
226	0xbd9974f6	-0.07493012
227	0xba43e072	-0.00074721046
228	0xbd89dce1	-0.067315824
229	0xbd9f4373	-0.07776537
230	0x3ba18f08	0.0049303807
231	0x3de2193e	0.11039971
232	0xbe13619a	-0.14392701
233	0x3da29ae6	0.07939701
234	0xbd88989a	-0.066697314
235	0xbd1f6e17	-0.03892335
236	0x3e03d195	0.12872918
237	0xbd0da89e	-0.034584634
238	0xbd619fdd	-0.055084098
239	0x3e0ab984	0.13547331
240	0xbd6d2f10	-0.05790621
241	0xbd16f537	-0.03685495
242	0xbc710658	-0.014710985
243	0xbd90028f	-0.07031738
244	0x3d96d062	0.073639646
245	0xbda04cc5	-0.078271426
246	0xbdab0698	-0.08350867
247	0x3e007682	0.12545207
248	0x3db2a44c	0.087227434
249	0x3d00cd6d	0.03144591
250	0x3d101842	0.035179384
251	0xbd7810a5	-0.06056275
252	0xbd9fed76	-0.07808964
253	0xbe1c6ce2	-0.1527591
254	0x3d30bc5d	0.043148387
255	0x3c4aa208	0.012367733

fc1.bias f4 [100]
0	0x3dde962c	0.10868487
1	0x3d9e03c3	0.07715561
2	0xbdb09a33	-0.08623161
3	0x3dc0d3d1	0.09415401
4	0xbd556d8c	-0.052106425
5	0xbe59e345	-0.21278103
6	0x3d37b9ea	0.044855036
7	0x3d09d13c	0.033646807
8	0x3e23a256	0.15979895
9	0xbc5cc847	-0.013475484
10	0x3e245ab4	0.16050225
11	0x3e80141d	0.25015345
12	0xbe2ff26e	-0.17182323
13	0x3dd5d741	0.10441447
14	0xbe9c5669	-0.30534676
15	0xbe4faa5b	-0.20279829
16	0x3d60ee93	0.054915022
17	0xbb780cb0	-0.003784936
18	0xbd07ba7b	-0.033136826
19	0x3cbff4c0	0.023432136
20	0x3d4de798	0.050269693
21	0x3e0ad0f6	0.13556275
22	0xbda6dc21	-0.08147455
23	0x3d9209b7	0.07130759
24	0xbd9a9ea7	-0.07549792
25	0xbca4753f	-0.020075439
26	0xbd1edf19	-0.03878698
27	0xbd1896ec	-0.037253305
28	0xbda4b3e1	-0.08042122
29	0xbde20654	-0.11036363
30	0xbd411aa8	-0.047144562
31	0x3e514cab	0.20439403
32	0xbda46c60	-0.080284834
33	0xbd97fbc1	-0.07421065
34	0x3d505938	0.050866336
35	0x3e5c89e9	0.21536984
36	0x3d35911c	0.04432784
37	0x3e39c11c	0.18140072
38	0xbd514c33	-0.05109806
39	0xbda3b6ee	-0.079938754
40	0xbd801b09	-0.062551565
41	0xbde36899	-0.11103935
42	0x3e03fd66	0.12889633
43	0xbdb974c5	-0.09055475
44	0xbdcaf614	-0.09910217
45	0x3e3b9df2	0.1832197
46	0x3d62f5f9	0.05541036
47	0xbdf95baa	-0.12175687
48	0xbd32e01e	-0.043670766
49	0xbd8f7ddc	-0.07006428
50	0xbd85344e	-0.06504117
51	0x3d355b7f	0.04427671
52	0x3da8be06	0.08239369
53	0xbd8d7037	-0.06906169
54	0xbd3bcedb	-0.04585157
55	0xbd1f12ba	-0.03883622
56	0x3c16b5ab	0.009198586
57	0xbd0d15df	-0.034444686
58	0xbc94d75d	-0.0181691
59	0xbe3c1a26	-0.1836935
60	0x3dfa6d74	0.12227908
61	0x3e456954	0.1927846
62	0xbdbb866e	-0.091565
63	0xbe22b534	-0.15889436
64	0xbdc57d8d	-0.096430875
65	0x3e317fdd	0.17333932
66	0x3e3e609c	0.18591541
67	0xbcfe85c4	-0.031069644
68	0xbd4c95a6	-0.049947403
69	0x3e23d879	0.16000547
70	0xbc89a8eb	-0.01680418
71	0xbd32b48b	-0.04362921
72	0xbd819686	-0.06327538
73	0xbe240539	-0.16017617
74	0x3e19d1b9	0.15021409
75	0x3da93c29	0.08263428
76	0xbd1ad073	-0.03779645
77	0x3d12ef41	0.0358727
78	0xbdb5a777	-0.08869832
79	0xbd6554ae	-0.05598896
80	0x3d045222	0.03230489
81	0xbe157d51	-0.14598586
82	0x3e0aa169	0.13538136
83	0x3d20eea8	0.0392901
84	0xbd70417e	-0.05865621
85	0xbd1d32bd	-0.038378466
86	0x3caef6ce	0.02135792
87	0xbd4f258f	-0.050572928
88	0x3c98dcd9	0.018659996
89	0xbdcfa94f	-0.10139715
90	0xbd80dfcb	-0.06292685
91	0xbdb5f4c5	-0.08884577
92	0x3dbb1198	0.09134215
93	0xbe879bfc	-0.26486194
94	0x3dc77ef1	0.09741009
95	0xbd30fc4e	-0.043209367
96	0x3dfd4127	0.123659424
97	0xbd41a127	-0.047272827
98	0x3ddca258	0.10773152
99	0xbd791363	-0.060809504

fc2.weight f4 [10, 100]
0	0xbc6672b1	-0.0140654305
1	0x3cc06c4c	0.02348914
2	0x3ca61e51	0.020278128
3	0x3cb7880b	0.022403738
4	0xbc96853b	-0.018374076
5	0xbcb3a8b3	-0.021931028
6	0xbd63dfa9	-0.05563322
7	0x3b5bddc6	0.0033548935
8	0x3b7ffaf0	0.0039059483
9	0x3c80e7d0	0.015735537
10	0x3d7ec289	0.062197242
11	0xbd765f9d	-0.060149778
12	0x3c2796d0	0.010228828
13	0xbc57bda3	-0.0131677715
14	0x3e03c937	0.12869726
15	0xbd2e3036	-0.042526446
16	0x3b137b02	0.0022503738
17	0x3dccadfd	0.09994123
18	0xbd417d7a	-0.047238804
19	0x3c98475f	0.01858872
20	0x3c47b23d	0.012188491
21	0xbcf56740	-0.02995646
22	0x3b6de1a7	0.003629783
23	0xbb985f06	-0.0046499996
24	0x3c084329	0.0083167935
25	0x3cab64d3	0.0209221
26	0xbb22a4de	-0.0024817507
27	0x3b842904	0.0040332098
28	0xbc1d9957	-0.009619079
29	0x3cfbdc98	0.030744836
30	0x3c55f481	0.013058783
31	0xbc0f5e89	-0.008750566
32	0x3bbeddb1	0.0058247675
33	0x3b1fbaed	0.002437289
34	0xbd3f7112	-0.04673869
35	0xbcc78a48	-0.02435793
36	0xbca0b2a4	-0.019616432
37	0x3cdce6a0	0.02696544
38	0x3c66475a	0.0140550975
39	0xbc5726d8	-0.01313182
40	0x3c91140e	0.017709758
41	0xba0dc3ac	-0.00054078805
42	0xbd25f808	-0.040519744
43	0xbd1b0065	-0.037842173
44	0x3b92923b	0.0044729984
45	0x3ca6a6f4	0.020343281
46	0xbba8c145	-0.0051499926
47	0xbcb4776b	-0.0220296
48	0x3d67515a	0.056474067
49	0x3bd64435	0.0065388926
50	0xbccd546c	-0.02506467
51	0xbbbeb240	-0.005819589
52	0xbc4fbc56	-0.01267918
53	0x3b9e6634	0.004833961
54	0xbd4e437b	-0.050357323
55	0xbc2a6c38	-0.010401778
56	0xbb820d9f	-0.003968909
57	0x3b8c7264	0.0042860974
58	0x3ccc8d85	0.024969826
59	0xbcc63cba	-0.024198879
60	0xbc7c183c	-0.015386637
61	0xbc05ed48	-0.008174248
62	0xbd7217dc	-0.059104785
63	0x3c7d6439	0.0154657895
64	0x3c57183a	0.013128335
65	0xbd049150	-0.032365143
66	0x3ac9c179	0.0015392742
67	0x3b6c3e73	0.0036047965
68	0xbc47d579	-0.012196892
69	0xbd891a34	-0.06694451
70	0x3ca665e0	0.02031225
71	0xbc198504	-0.009370092
72	0x3c41c5b6	0.011826923
73	0x3c2d837c	0.01059043
74	0xbbe8fe0e	-0.007110364
75	0x3c5ab799	0.013349437
76	0x3ca8bc38	0.020597562
77	0xbd0ec2b4	-0.034853652
78	0x3d0a395e	0.033746116
79	0xbc91ad41	-0.01778281
80	0xbbbef5d4	-0.005827645
81	0x3cb8084b	0.022464892
82	0xbba1599a	-0.0049240114
83	0x3c3e0260	0.011597246
84	0xbd75f17e	-0.060044758
85	0x3a69f6a6	0.0008924998
86	0x3ccea7c7	0.025226487
87	0x3be9a176	0.0071298433
88	0x3a0732fd	0.0005157439
89	0xbcc05682	-0.02347875
90	0xbc3bcc1c	-0.011462238
91	0xbd06fd65	-0.0329565
92	0x3ce225d6	0.027605932
93	0x3cefeee7	0.029288722
94	0xbc4aae6d	-0.012370688
95	0x3c9c8a82	0.019109014
96	0x3b53b3e7	0.0032303275
97	0xbc790419	-0.015198731
98	0x3d1d383d	0.03838371
99	0x3d299d2c	0.041409656
100	0x3c2c3c50	0.0105124265
101	0x3b9e547a	0.0048318477
102	0xbc73daf7	-0.014883748
103	0xbd0d57ec	-0.034507677
104	0x3c052c49	0.008128234
105	0x3d8995a2	0.06717993
106	0xbcb7196d	-0.022350991
107	0x3c5d6bcb	0.013514469
108	0x3cd16212	0.025559459
109	0xbc30b057	-0.01078423
110	0xbcf5f7e5	-0.030025432
111	0xbe05ad34	-0.13054353
112	0x3c90fa31	0.017697426
113	0x3d3d07bf	0.046149965
114	0xbd4222fa	-0.047396637
115	0x3c473e92	0.012160914
116	0x3bd8eb46	0.0066198437
117	0xbc5fdbb6	-0.013663223
118	0xbb34f3c6	-0.002761112
119	0xbb2e7b55	-0.0026623805
120	0x3ccd269e	0.025042828
121	0xbc0d46b6	-0.008622816
122	0xbd081ce8	-0.033230692
123	0xbd3a12f8	-0.045428246
124	0xbcaef764	-0.0213582
125	0xbcd2db9f	-0.02573949
126	0xbb99ebdd	-0.0046973065
127	0xbaa6f474	-0.0012737648
128	0xbcf9a765	-0.030475328
129	0x3d84c6f5	0.064832605
130	0xbb6452ff	-0.0034839509
131	0xbd3d1b68	-0.046168715
132	0xbaeb3a6a	-0.0017946486
133	0xbb37f17e	-0.0028067525
134	0x3d2c5791	0.042075697
135	0xbd1eb9c3	-0.038751375
136	0xbca54fea	-0.020179708
137	0xbc0f21c5	-0.008736079
138	0xbba66345	-0.005077752
139	0x3cc935a4	0.02456171
140	0x3aa83cfa	0.0012835555
141	0x3c87e01a	0.016586352
142	0x3ada36e0	0.0016648434
143	0x3c629fcc	0.013832044
144	0xbaa3acc5	-0.0012487402
145	0x3d3f7299	0.04674015
146	0xbbb5799b	-0.005538178
147	0xbbbf4c09	-0.0058379215
148	0x3c59a28b	0.013283382
149	0xbc333d06	-0.010939842
150	0xbb3db4e8	-0.002894694
151	0x3b6f06c8	0.0036472548
152	0xbc4fc68c	-0.012681615
153	0x3b95e57d	0.0045744763
154	0x3b5fea76	0.003416685
155	0x3c9d5804	0.019207008
156	0xbbd5f299	-0.006529164
157	0x3cd44a66	0.025914382
158	0xba7e0bfc	-0.0009691117
159	0x3d3fec28	0.046856076
160	0xbcadcee5	-0.021216819
161	0x3b4dc5c9	0.0031398407
162	0xbc709eb7	-0.014686278
163	0x3d097a76	0.033564053
164	0xbccd8762	-0.02508897
165	0xba73ec9f	-0.00093049736
166	0xbc29aa6f	-0.010355576
167	0xbbcc39a7	-0.0062324586
168	0x3cd0d17a	0.025490511
169	0x3c0bc059	0.008529746
170	0x3bcff12e	0.0063458895
171	0xbbc79724	-0.0060910154
172	0xba2688e8	-0.0006352798
173	0x3c269a44	0.010168616
174	0x3c2de08c	0.010612618
175	0xbc83fd75	-0.016112069
176	0xbbb94b73	-0.005654746
177	0xbc6dc55d	-0.014512387
178	0x3bc37a74	0.0059655253
179	0xbbf8b64a	-0.00759009
180	0xbb896879	-0.0041933623
181	0x3d009042	0.031387575
182	0xbc0515ad	-0.008122844
183	0x3c67a724	0.0141389705
184	0x3db7b74f	0.0897051
185	0xbc8c7fee	-0.017150845
186	0x3d0c109f	0.03419554
187	0x3babbf16	0.005241285
188	0x3d039dc9	0.032132898
189	0x3c4ff395	0.012692352
190	0xbc8c5d54	-0.017134346
191	0x3a4a19d2	0.0007709536
192	0xbc0f6d66	-0.00875411
193	0x3e12f800	0.14352417
194	0x3c8a3ca1	0.016874613
195	0xbab6b371	-0.0013938976
196	0xbbe94632	-0.0071189636
197	0x3c694a6e	0.014238937
198	0xbd85484b	-0.065079294
199	0xbb0e9b18	-0.0021759924
200	0x3bf73ef1	0.007545345
201	0xbc4d5bdc	-0.012534108
202	0xb7b37b18	-2.1395783e-05
203	0xbd453bae	-0.048152618
204	0xbc91d8e3	-0.017803615
205	0xbcf14724	-0.029452868
206	0x3d1685e9	0.0367488
207	0xbb961660	-0.004580304
208	0xbd371feb	-0.044708174
209	0x3c58d6fe	0.013234852
210	0x3d934124	0.07190159
211	0x3c6c6bdb	0.014430012
212	0x3cd493b7	0.025949342
213	0xbcaa1c90	-0.020765573
214	0xbdb52d00	-0.08846474
215	0x3da61a2e	0.08110462
216	0x3d966471	0.073433764
217	0x3c79a9e2	0.015238257
218	0xb9d95ab4	-0.00041457044
219	0xbcbdbb44	-0.023160584
220	0x3c803325	0.015649388
221	0x3b3af3b3	0.0028526604
222	0x3c2cfda4	0.0105585195
223	0xbbe15ff2	-0.0068778927
224	0x3d0d61ef	0.034517225
225	0xbaddc9f2	-0.0016921146
226	0x3c8430bd	0.016136521
227	0x3b6f25f4	0.0036491128
228	0xbc9a0a64	-0.018803783
229	0x3c69691a	0.01424625
230	0x3c5b1a5f	0.013372987
231	0x3bbd0576	0.0057684733
232	0xbdd48797	-0.10377424
233	0xbae0b4ee	-0.0017143765
234	0xbd210643	-0.039312612
235	0x3cb77b47	0.02239765
236	0xbc238625	-0.009980713
237	0x3ca41672	0.020030234
238	0x3c1e6ed2	0.009669976
239	0x3c5ade7f	0.013358711
240	0xbc47d79b	-0.0121974
241	0x3c7c412b	0.015396397
242	0x3d87a630	0.066234946
243	0xbc4eb387	-0.012616045
244	0x3bde8742	0.0067910263
245	0xbb8f282e	-0.0043688035
246	0x3d4de642	0.05026842
247	0x3d0d9b5d	0.034571994
248	0xbc87fdd5	-0.016600529
249	0xbb1b5a01	-0.002370477
250	0x3c61525a	0.013752544
251	0xbb83be13	-0.0040204613
252	0x3c6767e5	0.0141238915
253	0xbc5e58e5	-0.013570999
254	0x3bf1b408	0.0073761977
255	0x3c6e2957	0.014536223

fc2.bias f4 [10]
0	0xbe280b8d	-0.16410656
1	0xbe141a08	-0.14463055
2	0x3e2e53dc	0.17024177
3	0xbe256455	-0.16151555
4	0x3c4be389	0.012444385
5	0x3ce5aa26	0.028035235
6	0xbe1cc25b	-0.15308516
7	0x3e4c236c	0.19935387
8	0x3e04259f	0.12904976
9	0x3e423f0d	0.18969364
