model/modelFCNet/LfwNet/RReLU/FCNet_epoch3_Cluster43.pkl (torch_old, 107630 bytes, 4 tensors)

fc1.weight f4 [100, 256]
00000000: 62f4 9fbd 1275 063c d9c0 bd3d c77a 3d3e
00000010: 24f8 a6bd ac30 96bd 925a eebd b503 eebd
00000020: ba7f 5f3d a509 b0bc 6f8e c0bd 8cc7 b3bd
00000030: 154c 0b3e fccd 68bc 64cb d8bd b0ff 1a3b
00000040: df2c b23d 78fa 8b3b c0fd 52be 29e0 dc3c
00000050: 1d72 0ebe ec24 5cbd 8783 90be d902 65bc
00000060: eeb6 c1bd 05c0 37bd 9286 d13c 7e7d 673d
00000070: b736 e1bd 23eb 5ebd a1e8 76bd f8be 9a3d
00000080: c678 e5bc 17e7 24bd 5cde 12bc 6be0 043e
00000090: e08f 4a3c fddb f43c b139 c13d d82b 703c
000000a0: da0a 3c3d 9b39 65bd 9180 debc 6f64 5d3d
000000b0: 2516 fc3d b9a0 7b3c d270 1d3b c15f 863c
000000c0: b577 31bd ffe1 ff3b a39d 0b3d 68c5 163e
000000d0: 0578 6fbd fe14 5dbd 907f 4b3c f637 983d
000000e0: 9edc 94bd 8721 39bd 788d 10bc a447 76bd
000000f0: 41cd a53c f5d1 8d3d 6a03 e43c 6983 2cbe
00000100: c562 b8bd f6d3 c0bd 89ba 26bd d3fe 9b3b
00000110: 09b6 843d e05c 333d cd45 43bc 9cbf 7fbd
00000120: e2eb ac3c f89e 6cbd e2c7 65bd 5a9f 703c
00000130: 9e64 00bd 3431 36bd 4afb 133c d9ed febd
00000140: f897 1cbd 3234 003d 4ba9 4a3d 2d75 713c
00000150: b2e9 43bd dfc4 a6bd afc4 b33d 2ad9 d9bd
00000160: 05d9 693d 2663 143b a8a6 17b9 bc5a fabd
00000170: 5a90 e2bc d413 70bc f7a9 ca3c cb11 843b
00000180: cd3a a33c 8dec 63ba f39f 7bbd bafd 9cba
00000190: ed73 ae3d 7c81 5e3d 48f6 29bd 9c49 40be
000001a0: fd59 443d 8040 bbbd d8bc 88bd 573c 5a3d
000001b0: 3170 a93b fab6 b53d 8c7c c63d 8242 be3c
000001c0: db09 f43c f68d 373c ae2b 99bc df30 14bd
000001d0: 216b eb3c 70a4 a83b 1b20 1ebd edb7 c1bd
000001e0: 0d22 acbd 6021 293b a6e5 e63d 58d7 dbbd
000001f0: 400e 6bbc b4f4 aebc 8e98 86bc aa83 e5bd
00000200: 5568 2bbd d337 b8bd 8487 893d 6f2a 56bd
00000210: 09b6 c4bc 58b9 85bd 83ac 693d 38ec d3bd
00000220: 65b0 f73b 0a98 d1bd d569 b93c 711c 1bbd
00000230: c8ba 1e3d 8414 5abd 02cd 68be beec 333d
00000240: b1b7 933a eaf5 6ebc 2748 a1bb 52ac a6bc
00000250: bf05 f9bd 9b75 59bc ea22 4b3e f438 72bd
00000260: 7900 123d da14 f43d ef05 963d b2de 5dbc
00000270: b7e1 703d b623 26bd caa4 023e cfe6 173d
00000280: 40e0 ab3c 230a 72bc bfb7 eabc b976 083e
00000290: 64d0 3b3c 57e0 29bd 3e7a c2bd b773 16bd
000002a0: fd32 b93d 08a7 ee3d b470 233e 30ed 82be
000002b0: c3bb d0bd 318e 493c 9b0d 10bd 7ea6 413e
000002c0: 261f 0b3e 64a8 4abd e38a 28be 7167 5abc
000002d0: 3764 19bb f357 43bc e61f 22bd 7e29 2bbd
000002e0: 3e16 12bd 0b0b d2bd bee8 95bd 6848 dc3c
000002f0: c259 8e3d 1ee1 383c 50b6 a9bd 4899 adbc
00000300: 7f43 583d 9611 ffbc 5cf2 4cbd 47f0 7ebd
00000310: 5fd7 c73c 73a8 1cbd 088b 3a3d d6b9 6a3d
00000320: e0cf 62bc 575a 533d 5d9e d7bd 918c 433d
00000330: 9881 4fbc c65b 8c3c 70d8 11be dfba c6bb
00000340: 7456 a43d 1533 b53d 0e6e 5cbd 2af9 9bbd
00000350: ace8 233d 379c 133d 55f7 18be b56d e6bc
00000360: 33ca 03be 8687 6c3d 1993 2e3d b40f 0abd
00000370: 9ef1 963d 78db 0e3e 1c55 c93c 9bc7 be3c
00000380: 084e 86bd 9f97 6fbc 2996 70bd 91e3 043c
00000390: ea2d 94bd 6fff a0bd 7927 093b 7fe5 e53d
000003a0: 0f0f 0dbe 787a a33d 252c 79bd b4fe 2bbd
000003b0: 933d 043e 44e7 04bd c7c8 6dbd 5876 083e
000003c0: 6f79 3ebd 9608 0fbd 9618 86bc 54b4 73bd
000003d0: 5b97 813d df35 aabd a78e afbd 0226 003e
000003e0: 0f72 bd3d d4b1 fa3c 0766 0e3d 8487 89bd
000003f0: c267 98bd c0dd 15be 18b9 4d3d 84bd 353c
-0.07810284 0.008206623 0.092652984 0.18503867 -0.08152798 -0.07333502 -0.11638369 -0.11621801
0.05456517 -0.021488974 -0.09402167 -0.08778295 0.13603242 -0.014209267 -0.10585669 0.0023650937
0.08699965 0.0042718016 -0.2060461 0.026962357 -0.13910718 -0.05374615 -0.28225347 -0.01397773
-0.09458719 -0.04486086 0.025576863 0.056516163 -0.10996764 -0.054423463 -0.060280446 0.07555956
-0.02801169 -0.040259447 -0.008964147 0.12976234 0.012363404 0.029890055 0.09434832 0.014658891
0.045908786 -0.05596314 -0.027160915 0.05405086 0.12308911 0.0153581435 0.0024023545 0.01640308
-0.043327052 0.0078089233 0.03408588 0.14723742 -0.05846407 -0.053975098 0.01242055 0.07432549
-0.07268642 -0.04519799 -0.008822791 -0.060126916 0.020239474 0.06924812 0.02783366 -0.16847004
-0.09003214 -0.09415428 -0.040705238 0.004760602 0.06480033 0.043789744 -0.011918497 -0.062438592
0.021108571 -0.057768792 -0.056098826 0.01468643 -0.031345956 -0.044480518 0.00903208 -0.124477096
-0.038230866 0.031299777 0.049477857 0.01473741 -0.04783029 -0.08143019 0.08777749 -0.10637124
0.05709173 0.0022642105 -0.00014462566 -0.122243375 -0.027656723 -0.014653165 0.024739249 0.0040304414
0.0199255 -0.00086946116 -0.061431836 -0.0011977472 0.08518205 0.054322705 -0.041494638 -0.1877808
0.047937382 -0.09143162 -0.06676644 0.0532802 0.005170845 0.08872791 0.09691724 0.023225073
0.029789856 0.01120328 -0.018697586 -0.03617942 0.028737606 0.0051465556 -0.038604837 -0.09458909
-0.08404932 0.0025807247 0.11274271 -0.10734433 -0.014346659 -0.021356918 -0.016430166 -0.112067536
-0.041847546 -0.089950226 0.06715301 -0.05228656 -0.024012582 -0.06529492 0.057049286 -0.103477895
0.0075588697 -0.10234077 0.022633472 -0.03786892 0.038752347 -0.05324222 -0.22734454 0.043926947
0.0011269954 -0.014584998 -0.0049219313 -0.02034584 -0.12159299 -0.013272668 0.19837537 -0.059136346
0.035644982 0.119180396 0.073253505 -0.013541864 0.05880901 -0.0405614 0.12758175 0.03708535
0.020980954 -0.014772925 -0.02865207 0.13326539 0.011463258 -0.041473713 -0.09495972 -0.036731448
0.09042928 0.116529524 0.15960962 -0.25571585 -0.10192063 0.0123019675 -0.035169225 0.18911168
0.13586101 -0.049476996 -0.16459231 -0.013330326 -0.002340568 -0.011922824 -0.039581202 -0.041787617
-0.035665743 -0.102560125 -0.07319783 0.026889995 0.06950714 0.011284141 -0.082867265 -0.021191254
0.052798744 -0.031136315 -0.05003582 -0.062240865 0.02439469 -0.038246583 0.045542747 0.057306133
-0.013843507 0.051599827 -0.10528252 0.047741476 -0.012665175 0.017133605 -0.1424272 -0.0060647572
0.08024302 0.08847634 -0.053815894 -0.07615884 0.040016815 0.03603765 -0.149381 -0.028128484
-0.12870102 0.057746433 0.042620752 -0.033706382 0.073703036 0.13950908 0.024576716 0.023288539
-0.06557852 -0.014623552 -0.058736954 0.008110897 -0.0723532 -0.0786122 0.0020928069 0.112254135
-0.13775276 0.079823434 -0.060833115 -0.04199095 0.12914114 -0.032447115 -0.058052804 0.13326395
-0.046502527 -0.034920298 -0.016369145 -0.059498146 0.06327697 -0.08311056 -0.08572131 0.12514499
0.092502706 0.030602373 0.03476527 -0.06715301 -0.07441665 -0.14635372 0.050225347 0.011092547

fc1.bias f4 [100]
00000000: 5b15 dc3d c150 a63d e64e b3bd 318b bc3d
00000010: cf88 4ebd 091e 58be 9202 333d bf52 0b3d
00000020: aae3 223e 88d9 13bc ec6c 273e 36d5 7f3e
00000030: 230c 31be 5912 d93d 6bc6 9bbe da70 4ebe
00000040: ec1d 633d 465f 29bb 10d4 03bd 3cf2 e33c
00000050: 2fb2 4c3d 287f 0b3e 6a1f aebd 676c 903d
00000060: 9289 9cbd 71d2 99bc fae5 27bd 8967 22bd
00000070: 5aa8 a4bd bed5 e4bd 5334 3fbd 87c9 4e3e
00000080: 12ce a1bd 7ba8 9cbd 1241 503d 586f 5b3e
00000090: 99df 3a3d 3976 373e 5a71 61bd 9566 a0bd
000000a0: ba09 81bd 2b5b debd b43e 063e 7383 b3bd
000000b0: 290b c9bd abee 383e e296 6d3d f00a f5bd
000000c0: 3441 2cbd 39f9 92bd a696 85bd 3cd6 3f3d
000000d0: d53b a73d b034 90bd cf9e 39bd ef17 18bd
000000e0: f89c 4a3b 2fa0 0cbd e7e9 a9bc 19ea 3cbe
000000f0: 037c fd3d cef4 463e c839 bcbd 18f6 21be
00000100: 6b04 cdbd feca 323e c9a2 3b3e b3b6 ffbc
00000110: 9991 4dbd 5496 223e 54b2 68bc d829 31bd
00000120: a057 75bd ca36 21be b20d 183e 2fed a83d
00000130: 8ad1 23bd 0154 0d3d bb01 b8bd 90d5 5bbd
00000140: 05d7 fa3c 9822 19be 6c21 053e 92bb 183d
00000150: 59a2 79bd 14c1 0ebd 049a a63c 4f2a 50bd
00000160: 1756 813c 64a8 d2bd b145 75bd 9ba8 b1bd
00000170: bd39 bc3d 69c3 86be dbb4 c23d 90c5 28bd
00000180: a4ff fc3d dd45 38bd 5da6 de3d 36ac 81bd
0.10746261 0.08120871 -0.08755283 0.09206236 -0.05042344 -0.21105208 0.043703623 0.03401446
0.1590716 -0.009024031 0.16350144 0.24983677 -0.17289786 0.10599203 -0.30424818 -0.20160237
0.055448458 -0.002584414 -0.03218466 0.027825467 0.049974617 0.13622725 -0.085020855 0.07051926
-0.07643427 -0.018777104 -0.040990807 -0.03964952 -0.08039923 -0.111735806 -0.04668076 0.20194064
-0.07900633 -0.076493226 0.050843306 0.21429193 0.045623396 0.17916192 -0.05503974 -0.07832066
-0.06300683 -0.10857233 0.13109857 -0.08765306 -0.09816582 0.18059795 0.05800522 -0.11964977
-0.04205437 -0.07176442 -0.065228745 0.04683517 0.08165709 -0.07041299 -0.045317467 -0.0371322
0.0030916315 -0.03433245 -0.020741416 -0.18448676 0.12377169 0.19429323 -0.091907084 -0.15816534
-0.10010608 0.17460248 0.18323816 -0.031215047 -0.05018768 0.15877658 -0.014202673 -0.043252796
-0.05989802 -0.15743557 0.14848974 0.08248364 -0.039994754 0.03450394 -0.08984705 -0.053670466
0.030620107 -0.14954603 0.1300103 0.037288256 -0.060945842 -0.034852102 0.020337112 -0.0508216
0.015788121 -0.10286024 -0.059880916 -0.08674737 0.091907 -0.2632096 0.09507152 -0.041204035
0.12353447 -0.0449885 0.10871575 -0.06331675

fc2.weight f4 [10, 100]
00000000: 190f 61bc ce05 5d3c 6b23 8e3c 8333 be3c
00000010: f857 8ebc 8431 babc 7731 5bbd f597 973b
00000020: d958 8a3b 09fe f93c 2c2e 833d bb74 72bd
00000030: 003c c33b e2ee eabb 0fb8 063e a3dc 21bd
00000040: 6c84 0b3c 641f c23d 0956 69bd 4704 aa3c
00000050: 0d9c 0f3c f6bc 02bd afc9 3d3c 2f6e 7bbb
00000060: af3d a13a 04c4 c93c 7c8c 1a3c c241 14bc
00000070: 79a6 833a 1ad5 0b3d a798 4f3c dd0d 06bc
00000080: 8ef1 123c c7c9 df3b 216a 37bd 209d eabc
00000090: 2391 b1bc 372c fd3c 047c 653c 50c0 a0bc
000000a0: 1d2f 9a3c e1c2 1139 a1b8 1dbd 2853 d7bc
000000b0: b1a9 803b 14b1 973c c8b6 2cbb 3814 8cbc
000000c0: f02e 5e3d 8552 863b 33a5 e4bc f78d 48bb
000000d0: 3e09 10bc 3add 3f3a e477 79bd c01d 80bc
000000e0: 4e62 81bb 10a2 b53b 6d9b 9b3c f5e0 b2bc
000000f0: 2c49 85bc c122 76bb d536 55bd f2a4 c13c
00000100: 4f6a 813c b055 21bd a260 7aba e9c0 a03a
00000110: a862 bbbc a817 90bd 8f9c 843c 5d25 72bc
00000120: 60d9 ec3c 25d3 983c b34f 42bc 016a 863c
00000130: 54cb 003d ee91 04bd 0541 0f3d bc2b 76bc
00000140: d0d7 afbb ba89 813c 672a c1bb 78fb 263c
00000150: 4d65 7cbd 8af1 0ebb b7f9 c33c b88b 333b
00000160: 9fa9 58bb 0802 c1bc 9d5a 1bbc b026 31bd
00000170: edfe 013d 99ac ed3c b321 04bc 1f04 cd3c
00000180: 2795 313c a815 86bc b60b 303d 95fc eb3c
00000190: ed24 223c e291 fa3b f125 93bc 1112 ecbc
000001a0: 3283 a1bb 916d 853d 4d8f acbc c36c 8e3c
000001b0: f576 b33c 295a 5dbc 7206 dfbc 0a86 04be
000001c0: d747 863c 8613 443d 9554 49bd b868 323c
000001d0: 9598 8b3b b537 febb 5102 46bb b458 0a3a
000001e0: c70f 833c 7a5a 0abc acf5 d6bc 1d00 35bd
000001f0: b652 b4bc 5ab5 d1bc ed78 263b 3f84 c4b9
00000200: 6a15 e9bc 52ca 893d e924 e6bb dafb 2fbd
00000210: a606 c8bb 1bb6 8dbb f36c 2d3d 3b73 27bd
00000220: a91b babc 70fe d2bb d2ff 613b 88e1 313c
00000230: 4973 08ba 9f7c b63c cdbc faba dfe7 4d3c
00000240: 973e 52ba 7fc5 573d 8935 c3bb 3ac4 ac3b
00000250: 21f9 053c 967d 96bc 5a36 00ba b581 9a3b
00000260: 94f7 89bc 76d6 95bb b76b 9cba 79f9 ab3c
00000270: d0a3 11bc 7490 9a3c 5c9c 9cbb 9e04 453d
00000280: 1b48 a0bc e8f9 523b c7a0 2bbc a5a2 153d
00000290: 90e8 efbc ad26 753b 0565 53bc 46f8 2bbc
000002a0: 1eaa d93c 9978 163c db1c 8c3b 97d6 a838
000002b0: f714 513b 75e8 d53b 0444 903b 52f3 8cbc
000002c0: 8207 24bc fe5d 78bc ae11 bb3a f9e8 5cbc
000002d0: 8fd3 66bb bbf8 063d e5d6 08bc 4037 363c
000002e0: 65a0 b63d 92a3 73bc 1fa2 0c3d ef46 f2bb
000002f0: 0661 d43c 3462 413c 2355 a9bc 082b 83bc
00000300: 66cf babb dc8b 123e 8b09 9a3c 0403 c9b9
00000310: 2f67 20bc 89f9 833c 8a21 74bd b6b7 51bb
00000320: 1781 b13b da6f 29bc 1edf 733c 9057 36bd
00000330: 4dda 88bc ffb3 e6bc ccd6 063d 9541 b1bb
00000340: d234 29bd 794a 583c ff8b 903d 4ecf 5f3c
00000350: d675 063d 0786 b5bc c537 b1bd ad4d 9e3d
00000360: a7b5 953d a2a4 893c 2e39 063b 1ab2 afbc
00000370: 8167 893c 3fc6 e4ba 595c 003c 0a74 37bc
00000380: 3004 ba3c f8eb f63b 74b5 b33c d7af 21bb
00000390: 523e a0bc 9d9f 7d3c 23a6 7e3c 13eb b33b
000003a0: 5af4 d1bd 8a3e 28ba f0f4 1fbd 291b b43c
000003b0: b8e4 47bc 83cd c43c 3b34 be3b 7206 153c
000003c0: 5208 5cbc 74a3 8b3c da02 873d fc75 57bc
000003d0: fc8f 573c a8f0 e33a 269a 503d 0725 e83c
000003e0: e9c3 11bc 20dd e9bb 1378 9f3c a760 c6ba
000003f0: a565 403c c588 cebb a933 92ba 03cd 973a
-0.01373651 0.0134901535 0.017350873 0.023217922 -0.017375931 -0.022728689 -0.05351397 0.004626269
0.0042220172 0.030516641 0.06405291 -0.059193354 0.0059580803 -0.0071695903 0.1315615 -0.039517056
0.008515459 0.094786435 -0.056966815 0.020753993 0.008765233 -0.03191849 0.01158373 -0.0038365235
0.0012301708 0.0246296 0.009432908 -0.009048881 0.001004412 0.034138776 0.0126706725 -0.008182016
0.008968724 0.0068294737 -0.044778947 -0.028639376 -0.021675652 0.030904872 0.014006618 -0.019622952
0.018821293 0.00013900876 -0.038506154 -0.02628477 0.003926479 0.018517055 -0.0026354063 -0.017099485
0.05424398 0.0040991926 -0.027910804 -0.0030602196 -0.008791266 0.0007319037 -0.060905352 -0.015639186
-0.0039484864 0.005543001 0.018995011 -0.021835783 -0.016270243 -0.0037557336 -0.052054245 0.023638222
0.015797762 -0.03938836 -0.00095511426 0.0012264523 -0.022874191 -0.07035762 0.016187934 -0.014779416
0.028912246 0.018655369 -0.011859822 0.016407968 0.03144391 -0.032365732 0.034974117 -0.0150250755
-0.005366303 0.015812743 -0.0058949473 0.010191791 -0.061620045 -0.002181145 0.023922784 0.0027396511
-0.0033060086 -0.023560539 -0.009482053 -0.043249786 0.031737257 0.029012965 -0.008064675 0.02502638
0.010838783 -0.016367748 0.04297992 0.028806964 0.009896499 0.007646785 -0.017962428 -0.028817208
-0.00492897 0.06515039 -0.021064425 0.017385846 0.02190731 -0.013510265 -0.027224753 -0.12941757
0.016391678 0.04787018 -0.04915293 0.010889225 0.0042601326 -0.0077581056 -0.0030213783 0.00052775
0.015998734 -0.008444423 -0.026240192 -0.04418956 -0.022012096 -0.02559917 0.0025401667 -0.00037482564
-0.028452594 0.06728043 -0.007023443 -0.042964794 -0.006104308 -0.004324687 0.04234023 -0.040881377
-0.022718268 -0.0064390227 0.0034484756 0.0108569935 -0.0005205167 0.02227622 -0.0019129753 0.012567489
-0.0008020191 0.05267858 -0.0059573096 0.0052724155 0.008177073 -0.01837043 -0.00048909115 0.0047151693
-0.016841687 -0.004572685 -0.0011933957 0.020992981 -0.008889154 0.018867709 -0.0047793817 0.048100106
-0.019565633 0.0032192413 -0.010475344 0.036532063 -0.0292857 0.0037407086 -0.012902503 -0.010496205
0.026570376 0.009184026 0.004275901 8.050835e-05 0.0031903365 0.006527955 0.0044026393 -0.017205868
-0.010011556 -0.015159128 0.0014272237 -0.013483279 -0.0035221314 0.03295205 -0.008352016 0.011121571
0.089173116 -0.014870541 0.0343343 -0.00739371 0.02592517 0.011803199 -0.02067048 -0.01601173
-0.0057009934 0.14311165 0.018803379 -0.00038339954 -0.009790226 0.016110199 -0.059602298 -0.003200037
0.005417 -0.010341609 0.014884738 -0.0445171 -0.016705656 -0.028162 0.03291969 -0.0054094293
-0.04131014 0.013201349 0.07057952 0.013660265 0.03282722 -0.022158636 -0.08653215 0.07729659
0.07310038 0.016802136 0.002048086 -0.02144723 0.016772987 -0.0017454101 0.007834517 -0.011197099
0.022707075 0.007535454 0.02193711 -0.002467146 -0.019560967 0.015479949 0.01554254 0.0054906695
-0.102516845 -0.00064180105 -0.03905195 0.021985607 -0.012200527 0.024023777 0.005804566 0.009095775
-0.013429718 0.017045714 0.06592341 -0.013150688 0.013156887 0.0017390447 0.050928257 0.028337969
-0.008896806 -0.007136956 0.019466436 -0.0015135006 0.011742984 -0.0063029253 -0.0011154312 0.0011581484

fc2.bias f4 [10]
00000000: a806 28be d63b 12be 7ea6 2d3e 7aa2 25be
00000010: 1198 473c f7a6 e53c 6f30 1cbe 9584 4c3e
00000020: 3a8a 033e ebea 413e
-0.16408789 -0.14280638 0.16958043 -0.16175261 0.012182252 0.028033717 -0.15252851 0.19972451
0.12845698 0.1893727
