model/modelFCNet/LfwNet/RReLU/FCNet_epoch3_Cluster26.pkl (torch_old, 107634 bytes, 4 tensors)

fc1.weight f4 [100, 256]
-0.07866195 0.005466818 0.09015622 0.18401106 -0.07063022 -0.07272565 -0.11819 -0.11818483
0.056392565 -0.008821341 -0.082897104 -0.0909952 0.12571084 -0.011635159 -0.10581532 0.007216503
0.081370465 0.005912689 -0.20091185 0.015714366 -0.13666613 -0.059337873 -0.2837868 -0.019029193
-0.08706598 -0.045403782 0.028011711 0.053273883 -0.10184053 -0.05330163 -0.061927244 0.07438049
-0.030695345 -0.038785227 -0.016553797 0.1244503 0.01728383 0.027251799 0.0991943 0.002940381
0.045677803 -0.05725421 -0.031741355 0.054441098 0.11695913 0.009797234 0.0010927552 0.004442098
-0.05102116 -0.0030123047 0.036180418 0.14210747 -0.05635301 -0.048796374 0.022146527 0.08282276
-0.08956693 -0.036760762 -0.0196961 -0.06961361 0.013815728 0.06247755 0.020253424 -0.172592
-0.0960149 -0.08815152 -0.038480613 0.002914827 0.06685252 0.04270996 -0.0039907764 -0.0653371
0.016074544 -0.06385511 -0.063363075 0.0041486337 -0.029203199 -0.05792616 0.019338565 -0.1319011
-0.04221589 0.028833939 0.056944188 0.016904872 -0.04654873 -0.09345357 0.096994236 -0.1100913
0.069415376 0.0096014775 0.008017164 -0.12625694 -0.022353379 -0.015126192 0.028695598 0.002490034
0.018803718 0.0021329368 -0.06470072 -0.0037713696 0.09111613 0.053328227 -0.046836276 -0.18711162
0.04463967 -0.091080144 -0.0705957 0.05196243 0.00086348585 0.08632333 0.09910973 0.026676144
0.031226402 0.02067797 -0.028322402 -0.036999866 0.03964049 0.0077059814 -0.03434725 -0.10687132
-0.08644361 0.001090933 0.110482916 -0.10817068 -0.0046425555 -0.018848777 -0.014735319 -0.11218019
-0.036823537 -0.092604086 0.060491566 -0.057437103 -0.01042881 -0.0642966 0.06134857 -0.0971696
0.01657243 -0.09962483 0.032884125 -0.040651374 0.03261002 -0.051068503 -0.21730264 0.03549382
0.0006529174 -0.018650284 -0.005198991 -0.016361607 -0.11571031 -0.015038117 0.19680482 -0.053389974
0.04030773 0.11508414 0.08023456 -0.0048065325 0.04075282 -0.047395345 0.13351244 0.030603705
0.012953576 -0.021658912 -0.034469802 0.13277242 0.003643797 -0.03985608 -0.094212875 -0.028368672
0.090551265 0.116299 0.15499324 -0.25024694 -0.11521329 0.017778846 -0.03664583 0.18951356
0.14250831 -0.0517046 -0.16587998 -0.013407763 0.0034002706 -0.008765478 -0.023671318 -0.046810716
-0.038415488 -0.10471742 -0.06504884 0.026984472 0.059562493 0.013333721 -0.08600398 -0.019265793
0.0518316 -0.03474497 -0.046264026 -0.076951705 0.02378785 -0.035495147 0.03843763 0.05542513
-0.006727474 0.050879613 -0.09466787 0.05664464 -0.010772145 0.016481984 -0.14553668 -0.004798852
0.075396426 0.087714165 -0.057329662 -0.0765459 0.043977376 0.042529766 -0.15616101 -0.020767113
-0.12418844 0.048906013 0.040415782 -0.025333537 0.072369 0.13858125 0.017867677 0.022547334
-0.054730292 -0.011652311 -0.075070806 0.008784495 -0.07068787 -0.07971578 0.004184522 0.108234294
-0.15227301 0.0908868 -0.069551796 -0.039257 0.1281694 -0.036977585 -0.05510182 0.14355777
-0.04959033 -0.03076547 -0.012725653 -0.06754264 0.06906839 -0.08158532 -0.08115564 0.12577972
0.09241861 0.03041444 0.035802975 -0.06374931 -0.08112421 -0.15875962 0.05004886 0.014784408
00000000: 8419 a1bd fe22 b33b d3a3 b83d 656d 3c3e
00000010: 94a6 90bd 30f1 94bd 990d f2bd e30a f2bd
00000020: e4fb 663d 6387 10bc f5c5 a9bd b15b babd
00000030: 58ba 003e 65a1 3ebc b4b5 d8bd 6a78 ec3b
00000040: 8fa5 a63d 3bbf c13b d6bb 4dbe 6abb 803c
00000050: 35f2 0bbe 450c 73bd 814c 91be 1ce3 9bbc
00000060: a64f b2bd 51f9 39bd d178 e53c b735 5a3d
00000070: c591 d0bd cf52 5abd 6ca7 7dbd cc54 983d
00000080: ce74 fbbc 42dd 1ebd d49b 87bc cddf fe3d
00000090: d296 8d3c 2a3f df3c 6226 cb3d 68b3 403b
000000a0: a618 3b3d 6483 6abd 3903 02bd a1fd 5e3d
000000b0: 4588 ef3d 9484 203c c83a 8f3a 058f 913b
000000c0: 90fb 50bd 166a 45bb eb31 143d 9f84 113e
000000d0: 6ad2 66bd b5de 47bd a26c b53c fb9e a93d
000000e0: de6e b7bd 7492 16bd b759 a1bc 9591 8ebd
000000f0: 5d5b 623c 76e8 7f3d 82ea a53c f5bb 30be
00000100: 76a3 c4bd c988 b4bd d99d 1dbd af06 3f3b
00000110: f9e9 883d a4f0 2e3d 0fc5 82bb 75cf 85bd
00000120: c3ae 833c 78c6 82bd 80c4 81bd 43f1 873b
00000130: 8c3b efbc fb43 6dbd e96b 9e3c 1511 07be
00000140: 92ea 2cbd 2735 ec3c 4f3e 693d 167c 8a3c
00000150: e2a9 3ebd 9664 bfbd eaa4 c63d 8c77 e1bd
00000160: a629 8e3d 844f 1d3c 6c5a 033c 8049 01be
00000170: 6f1e b7bc d9d3 77bc 0813 eb3c d72f 233b
00000180: 410a 9a3c bec8 0b3b d081 84bd 1529 77bb
00000190: 189b ba3d b36e 5a3d 65d7 3fbd 309a 3fbe
000001a0: 16d8 363d 3a88 babd 7a94 90bd 8fd6 543d
000001b0: 8e5b 623a 49ca b03d 0bfa ca3d ee87 da3c
000001c0: 83ce ff3c d964 a93c 6204 e8bc 2c8d 17bd
000001d0: 115e 223d 7582 fc3b b4af 0cbd 5adf dabd
000001e0: 5909 b1bd a3fd 8e3a de44 e23d 9788 ddbd
000001f0: 9420 98bb c068 9abc 686c 71bc babe e5bd
00000200: 47d4 16bd 36a7 bdbd 01c6 773d 2b43 6bbd
00000210: 99dd 2abc f0ad 83bd a348 7b3d db00 c7bd
00000220: e8c2 873c 1a08 ccbd 81b1 063d 0e82 26bd
00000230: 1692 053d 352d 51bd 9584 5ebe f861 113d
00000240: 8c28 2b3a 7bc8 98bc 4c5c aabb c708 86bc
00000250: 87f9 ecbd 6f62 76bc 3487 493e 72af 5abd
00000260: b819 253d 3cb1 eb3d 0452 a43d 1e80 9dbb
00000270: 6eec 263d 9f21 42bd 7cb7 083e 9fb4 fa3c
00000280: 3c3b 543c 086e b1bc 3530 0dbd 7ef5 073e
00000290: c5cc 6e3b 2140 23bd aef2 c0bd 6b65 e8bc
000002a0: f172 b93d 2c2e ee3d 8cb6 1e3e 5e20 80be
000002b0: f2f4 ebbd f1a4 913c f019 16bd d80f 423e
000002c0: b3ed 113e 34c8 53bd 71dc 29be 3cac 5bbc
000002d0: 13d7 5e3b 149d 0fbc 5aea c1bc 98bc 3fbd
000002e0: 8f59 1dbd 1676 d6bd 5438 85bd 8a0e dd3c
000002f0: cdf7 733d ae75 5a3c db22 b0bd 4cd3 9dbc
00000300: 5f4d 543d be50 0ebd 597f 3dbd db98 9dbd
00000310: bdde c23c 5c63 11bd c770 1d3d 7605 633d
00000320: 2472 dcbb 2467 503d 3ae1 c1bd 3604 683d
00000330: a77d 30bc 3a05 873c 9107 15be b03f 9dbb
00000340: 7169 9a3d 7ca3 b33d 82d2 6abd 19c4 9cbd
00000350: 9f21 343d b133 2e3d ace8 1fbe cb1f aabc
00000360: 8256 febd ac51 483d 058b 253d 4788 cfbc
00000370: 3336 943d 3ee8 0d3e 3c5f 923c 30b5 b83c
00000380: df2c 60bd 56e9 3ebc b9be 99bd d8ec 0f3c
00000390: cdc4 90bd 0742 a3bd 511e 893b f1a9 dd3d
000003a0: 75ed 1bbe dc22 ba3d 2c71 8ebd f3cb 20bd
000003b0: d73e 033e cf75 17bd 72b2 61bd cf00 133e
000003c0: 3b1f 4bbd de07 fcbc 427f 50bc cc53 8abd
000003d0: ba73 8d3d 3416 a7bd ee34 a6bd 66cc 003e
000003e0: f845 bd3d b427 f93c 24a6 123d 008f 82bd
000003f0: 7324 a6bd e291 22be 0900 4d3d 4d3a 723c

fc1.bias f4 [100]
0.10876467 0.07856298 -0.08809896 0.094153695 -0.050732926 -0.21245722 0.044552736 0.035147358
0.16032642 -0.012675543 0.15932122 0.25076613 -0.16925976 0.10605889 -0.3059959 -0.20335017
0.05430531 -0.0028619936 -0.029542357 0.027318481 0.051042456 0.13628356 -0.08401849 0.06991212
-0.0757964 -0.017085148 -0.043247107 -0.036979552 -0.079772994 -0.11225356 -0.046044108 0.19894142
-0.0794952 -0.07415597 0.04961425 0.21286933 0.042915136 0.17906763 -0.05764496 -0.0754937
-0.06441134 -0.10981135 0.12924045 -0.08905338 -0.09729444 0.18047196 0.056549586 -0.12201061
-0.04436393 -0.07294821 -0.06447465 0.04314469 0.08021147 -0.06868911 -0.045526244 -0.035399195
0.0057041654 -0.035492547 -0.022316193 -0.1825325 0.1222868 0.19108528 -0.09081077 -0.16040091
-0.098961286 0.1718474 0.1867734 -0.032661255 -0.05192058 0.15719369 -0.014583696 -0.044867046
-0.060391713 -0.1590313 0.14839296 0.08232026 -0.03765733 0.034368485 -0.08891035 -0.055785943
0.030972796 -0.15057497 0.13112031 0.038394235 -0.0578367 -0.03547111 0.02250804 -0.049618468
0.015681602 -0.10010373 -0.060651068 -0.09172725 0.08817884 -0.26420826 0.09505766 -0.044981766
0.12259461 -0.046751652 0.10825318 -0.06113505
00000000: 03c0 de3d a1e5 a03d 3a6d b4bd a7d3 c03d
00000010: 54cd 4fbd 638e 59be ee7c 363d adf6 0f3d
00000020: 9c2c 243e 15ad 4fbc 1a25 233e 6b64 803e
00000030: 6e52 2dbe 6735 d93d 7fab 9cbe 073b 50be
00000040: 3f6f 5e3d 4990 3bbb d002 f2bc 02cb df3c
00000050: e511 513d eb8d 0b3e e311 acbd 162e 8f3d
00000060: 253b 9bbd 27f6 8bbc e123 31bd df77 17bd
00000070: 0660 a3bd 32e5 e5bd bf98 3cbd 4db7 4b3e
00000080: 61ce a2bd 16df 97bd 5038 4b3d 6bfa 593e
00000090: c8c7 2f3d 815d 373e 1f1d 6cbd 719c 9abd
000000a0: 18ea 83bd c6e4 e0bd 9c57 043e 9e61 b6bd
000000b0: 4f42 c7bd a4cd 383e 8aa0 673d b3e0 f9bd
000000c0: f4b6 35bd df65 95bd 490b 84bd 7db8 303d
000000d0: e945 a43d e0ac 8cbd ba79 3abd bffe 10bd
000000e0: 02ea ba3b a260 11bd 73d0 b6bc cde9 3abe
000000f0: 8071 fa3d dcab 433e fffa b9bd 2340 24be
00000100: 37ac cabd c4f8 2f3e 8741 3f3e cfc7 05bd
00000110: adaa 54bd 62f7 203e 74f0 6ebc 82c6 37bd
00000120: 4d5d 77bd 1ad9 22be 53f4 173e 8697 a83d
00000130: 933e 1abd f8c5 0c3d a116 b6bd cd7f 64bd
00000140: a9ba fd3c 5330 1abe 6744 063e 4643 1d3d
00000150: 2de6 6cbd 284a 11bd c862 b83c bc3c 4bbd
00000160: b476 803c 2f03 cdbd 416d 78bd 7fdb bbbd
00000170: 1c97 b43d 4e46 87be 97ad c23d cd3e 38bd
00000180: e212 fb3d a97e 3fbd d8b3 dd3d bf68 7abd

fc2.weight f4 [10, 100]
-0.015658146 0.017213242 0.020419547 0.023332965 -0.025593419 -0.023644522 -0.0560319 0.007674292
0.00028351063 0.015548977 0.066672765 -0.058902647 0.009725671 -0.007103235 0.13095917 -0.040465306
0.009923648 0.1026698 -0.046516813 0.019680507 0.011638292 -0.031205917 0.0065455097 -0.0011344155
-0.0007842765 0.028751327 0.005825128 -0.005340806 -0.007102426 0.03512434 0.013083542 -0.009965415
0.00533992 0.0010854948 -0.047613982 -0.030196909 -0.018668 0.030980261 0.006832796 -0.012970284
0.022620263 -0.004920892 -0.037721775 -0.033849042 0.0014603094 0.016720898 0.0020516005 -0.021512259
0.058817353 0.0031378767 -0.018503085 -0.000406738 -0.013211665 0.00820935 -0.05808424 -0.009102775
0.0035974106 -0.0067150635 0.01763569 -0.021558402 -0.012145402 -0.0038011402 -0.051841702 0.017609017
0.012472575 -0.028967284 -0.0016904005 0.005274136 -0.021411192 -0.06920033 0.02005377 -0.014795034
0.011426391 0.007637948 -0.010974114 0.017478611 0.023794418 -0.042476278 0.0434629 -0.010804031
-0.0056445897 0.018169217 -0.008464257 0.013888713 -0.060871664 0.0023387533 0.027096897 0.00062874507
0.002598715 -0.02205551 -0.017111095 -0.032614395 0.03234924 0.03150417 -0.004994443 0.026872458
0.01311935 -0.0058561093 0.035216354 0.03417556 0.014687454 0.008095636 -0.023169598 -0.033770468
0.00808287 0.06552624 -0.026421966 0.010477837 0.032095578 -0.002433163 -0.026866809 -0.12899321
0.02412701 0.049427234 -0.048282444 0.009100806 0.011277929 -0.010881885 0.0035984896 -0.0030272934
0.020512694 -0.0061250143 -0.039169293 -0.0459599 -0.009115104 -0.013183395 -0.0019512989 -0.0009484481
-0.027015198 0.06575976 -0.007352624 -0.050549574 0.00011255415 -0.0052400054 0.042532776 -0.04036223
-0.020618316 -0.006527441 -0.00870089 0.018610349 0.0040561445 0.016756766 -0.00270184 0.016653998
0.004638292 0.05004392 -0.004676705 0.0020375429 0.013510567 -0.012260426 -0.0071806894 0.006536987
-0.008759342 0.006063508 0.007244163 0.015594969 -0.007883332 0.01729366 -0.002185086 0.050874494
-0.011620385 0.0013002516 -0.016043525 0.033454258 -0.025242 0.002191617 -0.003614199 -0.013707922
0.023512615 0.009897529 0.0026110625 0.0025961164 0.005522788 0.009888259 0.0057852836 -0.020029567
-0.0022534847 -0.013777737 0.0028041417 -0.008865301 -0.005162019 0.02924923 -0.0073689576 0.018923845
0.087545395 -0.011657188 0.03130256 0.0018185588 0.03103058 0.014715765 -0.015362243 -0.00993106
-0.00015448274 0.14548132 0.02382955 -0.0045169345 -0.009287503 0.010915567 -0.06452231 -0.002150947
0.0058874073 -0.006684355 0.017998608 -0.04737039 -0.019822434 -0.028750803 0.04135608 -0.00839477
-0.0423994 0.0051057297 0.06745112 0.013384587 0.0313985 -0.02104339 -0.08629924 0.07964063
0.076114796 0.018729173 0.0042797793 -0.021820191 0.015513851 0.00077711995 0.0068669263 -0.009690214
0.024637643 0.0027949219 0.020723658 0.0067597544 -0.0176717 0.016838077 0.019002518 0.008772489
-0.10288757 9.8634526e-05 -0.039057147 0.021127345 -0.011191757 0.022858543 0.00791863 0.024431357
-0.019033296 0.02385702 0.05819647 -0.0042279144 0.0163861 -0.0042975782 0.05585391 0.02419372
-0.013235455 -0.00974652 0.008896027 -0.0028442382 0.007728433 -0.010583403 0.0016181389 0.007585661
00000000: 8345 80bc c902 8d3c e546 a73c c624 bf3c
00000010: 4aa9 d1bc 28b2 c1bc b581 65bd a178 fb3b
00000020: 27a4 9439 23c1 7e3c bb8b 883d e743 71bd
00000030: 6c58 1f3c 41c2 e8bb 291a 063e f3be 25bd
00000040: cc96 223c 8b44 d23d 6a88 3ebd 0439 a13c
00000050: 89ae 3e3c 8da3 ffbc b77b d63b abb0 94ba
00000060: e897 4dba e787 eb3c b7e0 be3b ee01 afbb
00000070: 78bb e8bb 8ade 0f3d 5a5c 563c fb45 23bc
00000080: 7ffa ae3b 2947 8e3a e106 43bd 825f f7bc
00000090: a2ed 98bc 51ca fd3c a6e5 df3b 5081 54bc
000000a0: 214e b93c 6f3f a1bb 2682 1abd 4ba5 0abd
000000b0: da67 bf3a 44fa 883c 2574 063b 7a3a b0bc
000000c0: 77ea 703d d6a4 4d3b c893 97bc 733f d5b9
000000d0: bd75 58bc 8280 063c bde9 6dbd ce23 15bc
000000e0: 89c2 6b3b 090a dcbb b978 903c 3f9b b0bc
000000f0: 82fd 46bc 8d1c 79bb f757 54bd c940 903c
00000100: c559 4c3c cc4c edbc 6e90 ddba a9d2 ac3b
00000110: 8666 afbc e7b8 8dbd ce47 a43c df66 72bc
00000120: c235 3b3c c047 fa3b c5cc 33bc 4e2f 8f3c
00000130: 83ec c23c 9bfb 2dbd 2706 323d 6403 31bc
00000140: 40f6 b8bb 9cd7 943c abad 0abc 7c8d 633c
00000150: 9154 79bd c545 193b 50fa dd3c 5ed2 243a
00000160: 344f 2a3b c2ad b4bc 912c 8cbc ac96 05bd
00000170: a380 043d 840a 013d 6da8 a3bb a123 dc3c
00000180: 8bf2 563c 9be4 bfbb 063f 103d acfb 0b3d
00000190: a6a3 703c 8fa3 043c 2bce bdbc e752 0abd
000001a0: 046e 043c 9f32 863d e172 d8bc 3cab 2b3c
000001b0: a776 033d b475 1fbb c817 dcbc cc16 04be
000001c0: 02a6 c53c 3674 4a3d d0c3 45bd 8c1b 153c
000001d0: 10c7 383c ef49 32bc a3d4 6b3b 8e65 46bb
000001e0: 3d0a a83c 58b4 c8bb fb6f 20bd 7340 3cbd
000001f0: 8457 15bc 2bff 57bc bac2 ffba 46a1 78ba
00000200: fa4e ddbc 0ead 863d 48ee f0bb 120d 4fbd
00000210: 0d0b ec38 5ab4 abbb d936 2e3d de52 25bd
00000220: bee7 a8bc 25e4 d5bb 2d8e 0ebc bb74 983c
00000230: 68e9 843b 7c45 893c 5a11 31bb f76d 883c
00000240: d0fc 973b dafa 4c3d 0c3f 99bb 4c88 053b
00000250: 6d5b 5d3c f4df 48bc fd4b ebbb 3934 d63b
00000260: 5883 0fbc 64b0 c63b 7260 ed3b 0a82 7f3c
00000270: 1729 01bc 6fab 8d3c a933 0fbb c661 503d
00000280: 6d63 3ebc 346d aa3a b66d 83bc 5507 093d
00000290: 50c8 cebc 3ba1 0f3b 33dc 6cbb 3197 60bc
000002a0: 879d c03c 3f29 223c 5c1e 2b3b 9b23 2a3b
000002b0: 81f8 b43b 5d02 223c 7a92 bd3b 0c15 a4bc
000002c0: 33af 13bb 04bc 61bc b1c5 373b c43f 11bc
000002d0: 2726 a9bb 159c ef3c 4c77 f1bb 2e06 9b3c
000002e0: 004b b33d cafd 3ebc 1d37 003d b55c ee3a
000002f0: d833 fe3c 641a 713c ebb1 7bbc e2b5 22bc
00000300: a5fc 21b9 0ef9 143e 3036 c33c cb02 94bb
00000310: 9c2a 18bc 35d7 323c 4624 84bd e7f6 0cbb
00000320: 27eb c03b 6f08 dbbb d171 933c 7407 42bd
00000330: a862 a2bc ce86 ebbc fe64 293d 388a 09bc
00000340: feaa 2dbd f74d a73b d023 8a3d 074b 5b3c
00000350: b79b 003d 3063 acbc a8bd b0bd a01a a33d
00000360: 13e2 9b3d ec6d 993c 643d 8c3b 42c0 b2bc
00000370: cf2d 7e3c a3b7 4b3a f403 e13b b4c3 1ebc
00000380: e2d4 c93c 022b 373b a9c4 a93c ee80 dd3b
00000390: 3ec4 90bc 02f0 893c 2bab 9b3c 7cba 0f3c
000003a0: b8b6 d2bd 02da ce38 63fa 1fbd 4113 ad3c
000003b0: a25d 37bc d741 bb3c 24bd 013c 4524 c83c
000003c0: b7eb 9bbc cc6f c33c 6c5f 6e3d 518a 8abb
000003d0: 243c 863c b3d2 8cbb 12c7 643d e931 c63c
000003e0: 86d9 58bc deaf 1fbc a4c0 113c 6666 3abb
000003f0: cb3e fd3b 0266 2dbc bb17 d43a 2391 f83b

fc2.bias f4 [10]
-0.16574211 -0.14366387 0.1693402 -0.16111216 0.010960743 0.029223286 -0.15396447 0.19860455
0.13010219 0.18952745
00000000: 4db8 29be 9f1c 13be 8467 2d3e 96fa 24be
00000010: b094 333c ac65 ef3c dda8 1dbe fe5e 4b3e
00000020: 8239 053e 7c13 423e
