model/modelFCNet/LfwNet/RReLU/FCNet_epoch3_Cluster7.pkl (torch_old, 107634 bytes, 4 tensors)

fc1.weight f4 [100, 256]
0	0xbd9782e9	-0.07398016
1	0x3c30cf50	0.010791615
2	0x3dc19555	0.09452311
3	0x3e50a4bb	0.2037534
4	0xbda17d8e	-0.07885276
5	0xbda2d9e9	-0.07951719
6	0xbe006a3c	-0.12540525
7	0xbdf0b95a	-0.11754103
8	0x3d7823b6	0.06058093
9	0xbca72f1f	-0.020408211
10	0xbdab390b	-0.083604895
11	0xbdba86c9	-0.091077395
12	0x3e0a7bb6	0.13523754
13	0xbc3449dc	-0.011003938
14	0xbdd52feb	-0.1040953
15	0x3bd22316	0.006412874
16	0x3db6a165	0.08917502
17	0x3b922e4b	0.004461085
18	0xbe4e86d4	-0.2016862
19	0x3cb2ec01	0.021841051
20	0xbe0380c6	-0.12842092
21	0xbd880e00	-0.06643295
22	0xbe8abf77	-0.270992
23	0xbc800807	-0.015628828
24	0xbdbbee3b	-0.09176298
25	0xbd344a00	-0.044015884
26	0x3d00729d	0.031359304
27	0x3d4bfa36	0.049799167
28	0xbdd34147	-0.10315185
29	0xbd3ed1e5	-0.04658689
30	0xbd87a0d8	-0.066224754
31	0x3d99927e	0.07498644
32	0xbcc15703	-0.02360106
33	0xbd183385	-0.037158508
34	0x3a5216e9	0.0008014278
35	0x3df7fe1d	0.12109015
36	0x3cccf63b	0.025019756
37	0x3cef8b8d	0.029241348
38	0x3dd17832	0.102280036
39	0x3b74d23c	0.0037356755
40	0x3d3a7c01	0.045528416
41	0xbd6527db	-0.055946212
42	0xbccaf933	-0.02477703
43	0x3d76eae1	0.06028259
44	0x3df7c969	0.12098963
45	0x3ccdecd3	0.02513734
46	0x3c068d81	0.008212448
47	0x3c04da8e	0.008108748
48	0xbd3c92fa	-0.046038605
49	0x3c595d22	0.0132668335
50	0x3d140f5c	0.03614746
51	0x3e1e3854	0.15451175
52	0xbd819a51	-0.06328262
53	0xbd65c393	-0.056094717
54	0x3c7436ca	0.014905641
55	0x3da038c8	0.0782333
56	0xbdb0971d	-0.086225726
57	0xbd0a5d63	-0.033780467
58	0xbca8af99	-0.020591544
59	0xbd8b710b	-0.068086706
60	0x3c3a2199	0.011360549
61	0x3d7beb7b	0.06150387
62	0x3cf92b9f	0.030416308
63	0xbe2ef706	-0.1708642
64	0xbdce1f0f	-0.10064518
65	0xbdbab96e	-0.09117399
66	0xbd134014	-0.03594978
67	0x3baa9128	0.0052052923
68	0x3d97c93a	0.07411428
69	0x3d396c99	0.045269582
70	0xbb9fa8b1	-0.0048724045
71	0xbd842eff	-0.06454276
72	0x3d041cb6	0.032253943
73	0xbd7e4208	-0.06207469
74	0xbd66836b	-0.056277674
75	0x3bf10e18	0.0073564164
76	0xbce650f3	-0.028114771
77	0xbd66e31f	-0.056368943
78	0x3c797a87	0.015226967
79	0xbe01f70a	-0.12691894
80	0xbd15bd3a	-0.036557414
81	0x3ce961ea	0.028489072
82	0x3d67ab82	0.056560047
83	0x3c74ee0a	0.014949331
84	0xbd4f273e	-0.050574534
85	0xbda5aaa5	-0.080891885
86	0x3ddbfec6	0.107419536
87	0xbddfe173	-0.10931673
88	0x3d9d26be	0.07673405
89	0xbbd4ecb7	-0.006497945
90	0x3c5b0cff	0.013369798
91	0xbe00342a	-0.12519899
92	0xbcbbf23d	-0.022942657
93	0xbc6937e3	-0.014234516
94	0x3ce968f8	0.028492436
95	0x39c3d485	0.00037351638
96	0x3ceb0c6e	0.02869245
97	0xbc06ccaf	-0.008227511
98	0xbd87af6f	-0.06625258
99	0x3acf8d23	0.0015834909
100	0x3dc1785a	0.09446783
101	0x3d5b20db	0.05349813
102	0xbd2a63b6	-0.041598998
103	0xbe402bbf	-0.18766688
104	0x3d481b29	0.048854027
105	0xbdbf850b	-0.09351548
106	0xbd7dd077	-0.061966386
107	0x3d3e21cf	0.04641896
108	0x3bc72f27	0.006078619
109	0x3dc29965	0.09501914
110	0x3dd2d314	0.10294166
111	0x3ce38c87	0.02777697
112	0x3ce7c79e	0.028293427
113	0x3c76fc43	0.015074792
114	0xbcc216c1	-0.02369249
115	0xbd2ffb3a	-0.042964198
116	0x3d03efe8	0.032211214
117	0x3b69cbdb	0.0035674486
118	0xbd15ab4d	-0.03654032
119	0xbdd44347	-0.10364395
120	0xbd9efa66	-0.077626035
121	0x3c118532	0.008881854
122	0x3dd1180e	0.10209666
123	0xbddce4cd	-0.10785828
124	0xbae5cc17	-0.0017532137
125	0xbca787df	-0.02045053
126	0xbd108966	-0.035287283
127	0xbde194bc	-0.11014697
128	0xbd0cd4e3	-0.034382712
129	0xbdc4dff2	-0.09613027
130	0x3d7c5eef	0.061613973
131	0xbd8a5308	-0.06754118
132	0xbc62ac64	-0.013835046
133	0xbd93bf1a	-0.07214184
134	0x3d604a78	0.05475852
135	0xbdb6745e	-0.08908914
136	0x3c12b72f	0.008954807
137	0xbdbd7397	-0.09250563
138	0x3d1b7fc7	0.037963655
139	0xbd13a99e	-0.03605043
140	0x3d0fd60e	0.035116248
141	0xbd6ec2ea	-0.058291353
142	0xbe63b3cf	-0.2223656
143	0x3cf8c403	0.030366903
144	0x3be09895	0.0068541267
145	0xbccec2cb	-0.025239369
146	0xbc22a015	-0.009925862
147	0xbc96f7b8	-0.018428668
148	0xbde4b782	-0.11167814
149	0xbc418aae	-0.011812849
150	0x3e4bf813	0.19918852
151	0xbd640192	-0.05566556
152	0x3d24bf24	0.04022135
153	0x3e012f81	0.12615778
154	0x3dac2ed1	0.08407367
155	0xbc71f539	-0.014767938
156	0x3d5422b1	0.051790897
157	0xbd1c5fcb	-0.038177293
158	0x3e0aa088	0.135378
159	0x3d34d257	0.04414591
160	0x3cf516b4	0.029918052
161	0xbca11ff5	-0.019668559
162	0xbd03efee	-0.032211237
163	0x3e0febe1	0.14054824
164	0x3c5f8e1d	0.013644722
165	0xbd25dd06	-0.040493988
166	0xbdba606c	-0.09100422
167	0xbcb393f9	-0.021921145
168	0x3dc79c4e	0.0974661
169	0x3df1e348	0.118109286
170	0x3e1a3960	0.1506095
171	0xbe828947	-0.2549536
172	0xbde2c2aa	-0.110722855
173	0x3cb3bd12	0.021940742
174	0xbd27f11f	-0.041001435
175	0x3e408a9c	0.18802875
176	0x3e04fe61	0.12987663
177	0xbd21dd7c	-0.039517865
178	0xbe321f3b	-0.17394726
179	0xbc4e6db6	-0.012599399
180	0x3b945e30	0.0045278296
181	0xbc08a960	-0.008341163
182	0xbd1f7073	-0.0389256
183	0xbd208544	-0.039189592
184	0xbd2c826d	-0.04211657
185	0xbdd362d5	-0.10321585
186	0xbd866a93	-0.06563296
187	0x3ce15b35	0.027509311
188	0x3d75b483	0.059986603
189	0x3c930809	0.017948167
190	0xbdb7c239	-0.08972592
191	0xbc4e49b8	-0.012590818
192	0x3d571eca	0.052519597
193	0xbcccef3e	-0.025016423
194	0xbd4779d6	-0.048700176
195	0xbd867c25	-0.065666474
196	0x3caba93f	0.020954726
197	0xbd4a599c	-0.049401864
198	0x3d448624	0.04797949
199	0x3d6b82e4	0.057497874
200	0xbbe49964	-0.0069762934
201	0x3d4fac20	0.05070126
202	0xbdc3a68f	-0.09553253
203	0x3d699333	0.057025146
204	0xbbbf6988	-0.0058414377
205	0x3cbf83e6	0.023378324
206	0xbe1a264b	-0.1505367
207	0xbc2678ca	-0.010160634
208	0x3dabf36a	0.08396037
209	0x3dc0d707	0.09416013
210	0xbd859c0a	-0.06523903
211	0xbda38c3a	-0.079857305
212	0x3d46dd19	0.0485507
213	0x3d0d67a1	0.034522656
214	0xbe1c132a	-0.15241686
215	0xbcebaff7	-0.02877043
216	0xbe02ba7a	-0.12766448
217	0x3d631ef5	0.055449445
218	0x3d2ff3e2	0.042957194
219	0xbca883e8	-0.02057071
220	0x3d95c232	0.073124304
221	0x3e0dc414	0.13844329
222	0x3ca89f82	0.020583872
223	0x3cc55109	0.024086492
224	0xbd8446b6	-0.064587995
225	0xbc9817e1	-0.018566074
226	0xbd93e64d	-0.07221661
227	0x3c4796b0	0.012181923
228	0xbd95131d	-0.07279036
229	0xbd9ff93b	-0.07811209
230	0x3a8fd2b6	0.0010972831
231	0x3de5abcf	0.112144105
232	0xbe15648e	-0.1458914
233	0x3d976e9c	0.07394144
234	0xbd8b6531	-0.0680641
235	0xbcf4b02a	-0.029869158
236	0x3e06b82c	0.13156193
237	0xbd2cf3a9	-0.04222456
238	0xbd656569	-0.056004915
239	0x3e09c280	0.13453102
240	0xbd4fbb06	-0.05071547
241	0xbcfd9868	-0.030956462
242	0xbc2be322	-0.010491164
243	0xbd836ab2	-0.06416835
244	0x3d942abe	0.07234715
245	0xbd97ce6c	-0.07412419
246	0xbdc55503	-0.09635355
247	0x3dffb30f	0.124853246
248	0x3dbe362c	0.09287676
249	0x3cec8b58	0.028875038
250	0x3d0d7aeb	0.03454105
251	0xbd6562e4	-0.056002513
252	0xbd8ac81e	-0.067764506
253	0xbe245fc4	-0.16052157
254	0x3d315162	0.043290503
255	0x3c86c3f8	0.016450867

fc1.bias f4 [100]
0	0x3ddf94c4	0.10917047
1	0x3da8ef52	0.08248772
2	0xbdb116bc	-0.08646914
3	0x3dc42d25	0.09578923
4	0xbd5b4317	-0.05353078
5	0xbe5800be	-0.21094033
6	0x3d327c9f	0.04357588
7	0x3d0bb8c0	0.03411174
8	0x3e21e4e9	0.15809979
9	0xbc308882	-0.0107747335
10	0x3e2371a4	0.15961319
11	0x3e8060c0	0.25073814
12	0xbe308fe8	-0.17242396
13	0x3dd8a32f	0.10578
14	0xbe9bf195	-0.3045775
15	0xbe4e7785	-0.2016278
16	0x3d53a2f9	0.051669095
17	0xbb5662b0	-0.003271263
18	0xbd002b50	-0.031291306
19	0x3ce16265	0.027512738
20	0x3d4c1abc	0.049830183
21	0x3e0b99c4	0.13632876
22	0xbda9f2ea	-0.08298285
23	0x3d913dfe	0.07091902
24	0xbd9cb5ae	-0.0765184
25	0xbc8a1577	-0.016855938
26	0xbd3006fd	-0.042975415
27	0xbd216ed8	-0.03941235
28	0xbdab4cb9	-0.08364243
29	0xbde2f4ab	-0.11081823
30	0xbd4bad1d	-0.04972564
31	0x3e4d5ec0	0.20055676
32	0xbda36561	-0.07978321
33	0xbd949183	-0.07254317
34	0x3d5a0b63	0.053233515
35	0x3e5afebe	0.21386239
36	0x3d3b8665	0.045782465
37	0x3e384983	0.17996792
38	0xbd5e2a00	-0.054239273
39	0xbda5ffcb	-0.08105429
40	0xbd789e8d	-0.06069808
41	0xbdd7d492	-0.105385914
42	0x3e04074a	0.12893406
43	0xbdb5ef15	-0.08883492
44	0xbdca920a	-0.09891136
45	0x3e3a9392	0.18220356
46	0x3d6390b8	0.055557936
47	0xbdfc64d6	-0.123239204
48	0xbd2c1507	-0.04201224
49	0xbd994ba2	-0.07485129
50	0xbd86e6e1	-0.065870054
51	0x3d32b0ec	0.043625757
52	0x3da570f3	0.08078184
53	0xbd93aba7	-0.072104745
54	0xbd3cebb4	-0.04612322
55	0xbd1208a8	-0.035652786
56	0x3bdcd2f9	0.006739017
57	0xbd13f276	-0.0361199
58	0xbcae4590	-0.021273404
59	0xbe3dda96	-0.18540415
60	0x3e00c809	0.12576307
61	0x3e4545f0	0.1926496
62	0xbdb9e32c	-0.09076533
63	0xbe21d619	-0.15804328
64	0xbdcabc74	-0.09899226
65	0x3e307efe	0.17235944
66	0x3e3d109a	0.18463364
67	0xbd04ff06	-0.03246977
68	0xbd4b4d25	-0.049634118
69	0x3e238488	0.15968525
70	0xbc952254	-0.018204845
71	0xbd25a72c	-0.04044263
72	0xbd6fa243	-0.058504354
73	0xbe1fa3b5	-0.15589793
74	0x3e19913a	0.14996806
75	0x3daf2148	0.0855127
76	0xbd28b753	-0.041190457
77	0x3d10fa37	0.035394873
78	0xbdb94703	-0.090467475
79	0xbd629480	-0.055317402
80	0x3cf67b50	0.030088097
81	0xbe1a0491	-0.15040804
82	0x3e07431f	0.13209198
83	0x3d15b540	0.036549807
84	0xbd71d105	-0.059037227
85	0xbd098b55	-0.033580143
86	0x3cbe3c8d	0.023222232
87	0xbd537f43	-0.051635038
88	0x3c8f1d86	0.017470133
89	0xbdd3b89d	-0.103379466
90	0xbd7b42f0	-0.061343133
91	0xbdb5e631	-0.08881796
92	0x3dbb0d0b	0.09133347
93	0xbe87a865	-0.26495662
94	0x3dc14368	0.09436685
95	0xbd2e7297	-0.04258975
96	0x3e00b69a	0.12569657
97	0xbd37804f	-0.0448001
98	0x3ddb0956	0.1069514
99	0xbd78a8cd	-0.060707856

fc2.weight f4 [10, 100]
0	0xbc93d4b8	-0.018045768
1	0x3c834919	0.016026067
2	0x3c81c998	0.015843198
3	0x3cd59a65	0.026074598
4	0xbcc5be2e	-0.024138536
5	0xbcc1bc08	-0.02364923
6	0xbd5cf782	-0.05394698
7	0x3c0cf8d7	0.00860425
8	0x3c009a9c	0.007849362
9	0x3c915c12	0.017744098
10	0x3d75219e	0.059846513
11	0xbd787986	-0.06066277
12	0x3b3fea43	0.0029283918
13	0xbbec540e	-0.0072121685
14	0x3e048903	0.12942891
15	0xbd24720e	-0.040147834
16	0x3bb4a167	0.0055124047
17	0x3dce5de2	0.100765005
18	0xbd6398f5	-0.055565793
19	0x3c92c7e9	0.01791759
20	0x3c114d37	0.008868507
21	0xbd0ade4e	-0.033903413
22	0x3c5f4267	0.013626671
23	0xbba77513	-0.005110392
24	0xb9a5dab3	-0.00031634196
25	0x3ca9541d	0.020669991
26	0x3c2d8c76	0.0105925705
27	0x3bd5b78c	0.0065221246
28	0xbb88f944	-0.0041801054
29	0x3d07ac08	0.033123046
30	0x3c6f840c	0.014618885
31	0xbbb84f51	-0.0056246896
32	0x3bb5e4d8	0.005550962
33	0x3c76b0f2	0.0150568355
34	0xbd512270	-0.051058233
35	0xbcca4561	-0.024691286
36	0xbca7f7ad	-0.020503843
37	0x3d01faec	0.03173344
38	0x3bd25601	0.006418944
39	0xbc7d62e6	-0.015465474
40	0x3d049125	0.032364983
41	0x3a5a6497	0.0008331029
42	0xbd1e76d0	-0.038687527
43	0xbd1a3639	-0.037649367
44	0x3b0a1225	0.0021067944
45	0x3c9527fa	0.018207539
46	0xbb849dec	-0.004047146
47	0xbc3e51c2	-0.011616172
48	0x3d768c00	0.06019211
49	0x3bd2a500	0.006428361
50	0xbc8e7127	-0.01738794
51	0xbb35682f	-0.0027680506
52	0xbc484b79	-0.012225025
53	0x3bd65341	0.0065406864
54	0xbd564153	-0.05230839
55	0xbc65adff	-0.014018535
56	0x3a927098	0.0011172472
57	0xbc494f4a	-0.01228697
58	0x3cb115ad	0.021616781
59	0xbc963581	-0.01833606
60	0xbc5fa83f	-0.013650953
61	0xbaa36faf	-0.0012469197
62	0xbd5598d2	-0.052147694
63	0x3c97f33e	0.018548604
64	0x3c4fa2c0	0.01267308
65	0xbd0be846	-0.03415706
66	0xbb1df38f	-0.002410147
67	0x3c029955	0.0079711275
68	0xbc6803bd	-0.0141610475
69	0xbd83baea	-0.064321354
70	0x3c7a0496	0.015259882
71	0xbc40afba	-0.0117606465
72	0x3c7acc58	0.015307508
73	0x3c008c4f	0.007845952
74	0xbc342454	-0.010994989
75	0x3c82ba4c	0.015957974
76	0x3ce9a944	0.028523095
77	0xbd19d3d1	-0.03755552
78	0x3cf7c926	0.030247282
79	0xbc86573f	-0.016399024
80	0xbc0782df	-0.008270948
81	0x3cddeb8c	0.027089857
82	0xbb623e26	-0.0034521907
83	0x3c383cbf	0.011244952
84	0xbd63985b	-0.05556522
85	0x3bd1a330	0.0063976273
86	0x3ccfe7d4	0.025379099
87	0xbb797348	-0.0038063098
88	0x3c1a30ef	0.009411081
89	0xbc4e9e40	-0.012610972
90	0xbbf848d1	-0.0075770398
91	0xbd04a2a8	-0.032381684
92	0x3cdd9262	0.02704734
93	0x3d01c620	0.031683087
94	0xbc2fef37	-0.010738186
95	0x3d077b25	0.033076424
96	0x3b829f8e	0.0039863056
97	0xbc155258	-0.009113871
98	0x3d1ab49e	0.037769906
99	0x3d00f4a4	0.031483307
100	0x3c152c20	0.0091047585
101	0x3b321bf1	0.00271773
102	0xbc4b5fda	-0.0124129895
103	0xbd02052f	-0.031743225
104	0x38e4bd20	0.000109071145
105	0x3d828c11	0.06374372
106	0xbca718ed	-0.020397628
107	0x3c8c1946	0.017101895
108	0x3ca7d1c3	0.020485764
109	0xbb61fa69	-0.0034481531
110	0xbcf3a98c	-0.029743932
111	0xbdf90bd3	-0.121604584
112	0x3c8ead9d	0.01741677
113	0x3d53df98	0.051726907
114	0xbd4e644b	-0.050388616
115	0x3c1d9052	0.009616928
116	0x3ba9ec2d	0.005185625
117	0xbc46f17e	-0.012142537
118	0xbae9d3b3	-0.001783958
119	0xbb1edf02	-0.002424181
120	0x3c66def4	0.014091242
121	0xbbde6433	-0.006786847
122	0xbd21bff8	-0.039489716
123	0xbd1a40ea	-0.037659563
124	0xbc93774b	-0.01800122
125	0xbcc1f4b6	-0.023676258
126	0x3b0a4b75	0.0021102105
127	0x3be7b75b	0.007071418
128	0xbcda0863	-0.026615327
129	0x3d76904a	0.0601962
130	0xbc96b516	-0.018396895
131	0xbd38bde9	-0.045102987
132	0xbbc3bd2e	-0.0059734797
133	0xbc18b19c	-0.009319689
134	0x3d3a0e3e	0.04542374
135	0xbd222543	-0.039586317
136	0xbcc4952e	-0.023996916
137	0xbbb56851	-0.005536117
138	0x3ab53e72	0.0013827814
139	0x3ccecb6e	0.025243487
140	0x3ae59ece	0.0017518641
141	0x3cadc3ed	0.021211589
142	0xbc0ab274	-0.008465398
143	0x3cabbaa7	0.020963026
144	0xbc092678	-0.008370988
145	0x3d500193	0.05078275
146	0xbc0864e3	-0.0083248345
147	0xbbbdc8ea	-0.005791773
148	0x3c147b08	0.009062536
149	0xbcad774f	-0.021175055
150	0xbbfe4153	-0.007759252
151	0x3b2ca9d3	0.002634634
152	0xbbd9d66b	-0.006647875
153	0x3ab9cde2	0.0014175738
154	0x3a417bc2	0.0007380807
155	0x3cb34780	0.02188468
156	0xbbf045aa	-0.0073325234
157	0x3cbccf81	0.023048164
158	0xba8c024f	-0.001068184
159	0x3d31e7b9	0.04343388
160	0xbcb09c8b	-0.02155902
161	0x3b9e8902	0.00483811
162	0xbc25eee8	-0.0101277605
163	0x3d351535	0.044209678
164	0xbcf95ea3	-0.030440634
165	0x3ace9dbb	0.001576356
166	0xbc8df26f	-0.017327515
167	0xbc2dbc4e	-0.010603977
168	0x3cab497c	0.020909064
169	0x3c08d3a9	0.008351245
170	0x3c057f55	0.008148034
171	0xbb7b8571	-0.0038379098
172	0x3b89dfbd	0.00420758
173	0x3b3c2cea	0.0028713294
174	0x3c68a522	0.014199527
175	0xbcc30981	-0.023808243
176	0xbbb00f58	-0.005372923
177	0xbc84afef	-0.016197173
178	0x397b249b	0.00023950862
179	0xbc166048	-0.009178229
180	0xbb37d322	-0.002804943
181	0x3cee47a1	0.02908689
182	0xbc27a4b5	-0.01023214
183	0x3c324638	0.010880999
184	0x3dbc7014	0.09201065
185	0xbc7ba359	-0.015358769
186	0x3cf88c4c	0.030340336
187	0xbb3f2b5d	-0.0029170134
188	0x3ce6ff28	0.02819784
189	0x3c9a5076	0.018837195
190	0xbcafccfc	-0.021460049
191	0xbc2fa256	-0.010719856
192	0xbb2f5ecd	-0.0026759387
193	0x3e11ac3a	0.14225855
194	0x3c89d0da	0.016823221
195	0x3bc385a0	0.005966857
196	0xbc75ab43	-0.014994445
197	0x3c9f8b3a	0.019475568
198	0xbd74e67c	-0.05979012
199	0x3b91f2dc	0.004454
200	0x3bf97e21	0.0076139127
201	0xbbcdf41c	-0.0062852036
202	0x3c7157db	0.014730419
203	0xbd4584e2	-0.04822243
204	0xb94cd8fd	-0.0001953579
205	0xbce950b4	-0.028480865
206	0x3ceb5d4f	0.028731016
207	0xbb89a631	-0.0042007198
208	0xbd23d049	-0.039993558
209	0x3c0ed999	0.0087188715
210	0x3d8f6afa	0.07002826
211	0x3c289e85	0.0102917
212	0x3d080901	0.03321171
213	0xbcb00004	-0.021484382
214	0xbdb469f2	-0.0880927
215	0x3da52a90	0.08064759
216	0x3d8cb8cc	0.06871185
217	0x3c82d430	0.01597032
218	0x3be8b59f	0.007101729
219	0xbcc08a66	-0.023503494
220	0x3c80dc02	0.015729908
221	0x3b5c505d	0.0033617236
222	0x3c17dded	0.00926922
223	0xbc114ae8	-0.008867957
224	0x3cda1c60	0.026624858
225	0xbadae0af	-0.0016699041
226	0x3c12089a	0.008913184
227	0xbabfe644	-0.0014640768
228	0xbc92dbec	-0.017927133
229	0x3cbb6839	0.022876846
230	0x3c39acb2	0.011332678
231	0x3af12624	0.0018398208
232	0xbdd2ba2b	-0.10289415
233	0x3bf17d5a	0.0073696794
234	0xbd1d80e6	-0.038453005
235	0x3c9c44de	0.019075807
236	0xbc0c1ea0	-0.008552223
237	0x3cbaa133	0.022781944
238	0x3c02ba17	0.007978938
239	0x3c273bc3	0.010207119
240	0xbc99e79e	-0.018787201
241	0x3c7d52e1	0.015461654
242	0x3d8a3d4b	0.06749972
243	0xbbc22036	-0.00592425
244	0x3c0ac5d2	0.008470016
245	0xbb5b23a1	-0.0033437985
246	0x3d4892ba	0.048968054
247	0x3cfcc9e9	0.030857997
248	0xbc0b4ad9	-0.008501732
249	0xbb98ec14	-0.0046668146
250	0x3c6b6dcd	0.01436944
251	0xbb843fa3	-0.0040359064
252	0x3c6723bc	0.014107641
253	0xbbc10506	-0.0058904914
254	0x3c05f3d6	0.008175811
255	0x3b436d33	0.0029819726

fc2.bias f4 [10]
0	0xbe27e4a7	-0.16395818
1	0xbe12a6e8	-0.14321482
2	0x3e2ddb4d	0.16978188
3	0xbe26072f	-0.16213678
4	0x3c402ece	0.011729909
5	0x3ce8eacf	0.028432278
6	0xbe1b342c	-0.1515662
7	0x3e4c72c3	0.19965653
8	0x3e045b0a	0.12925354
9	0x3e436c6d	0.1908433
