model/modelFCNet/LfwNet/RReLU/FCNet_epoch3_Cluster17.pkl (torch_old, 107634 bytes, 4 tensors)

fc1.weight f4 [100, 256]
000000 fd b4 9f bd 87 eb c3 3b e6 83 cd 3d 2f 6d 3c 3e
       -0.07798193 0.005979005 0.10034923 0.18401025
000010 96 09 a1 bd 61 72 9e bd 12 04 fd bd 60 1a f0 bd
       -0.078631565 -0.0773666 -0.12354292 -0.11723781
000020 57 96 6a 3d cd 4b a6 bc e3 d3 ab bd b2 fe c9 bd
       0.05727228 -0.020299817 -0.083900236 -0.098630324
000030 a1 c3 07 3e f7 8b 84 bc a8 c7 d0 bd 24 2d 9d 3b
       0.1325822 -0.016180022 -0.101943314 0.004796641
000040 87 67 c2 3d bd 72 0f 3b 29 85 4f be 02 1c 76 3c
       0.094924025 0.0021888458 -0.2026564 0.015021326
000050 24 4d 0f be c7 54 6f bd 84 55 91 be 1f 6d 77 bc
       -0.1399427 -0.05843046 -0.28385556 -0.0151017
000060 74 dc c1 bd fb e9 4c bd 0b 91 05 3d 1a b5 48 3d
       -0.09465876 -0.05002783 0.032609027 0.049000837
000070 af d5 e7 bd 33 17 6e bd 8c 83 69 bd b9 f3 92 3d
       -0.11320054 -0.058127593 -0.05701022 0.07175393
000080 2a 69 c2 bc 00 0e 2c bd 18 bf 88 bb 46 fb e0 3d
       -0.023731787 -0.04200554 -0.004173171 0.109854266
000090 2b c2 a8 3c 1d c9 cd 3c ee 92 e0 3d 6e 08 89 3c
       0.020600399 0.025120312 0.109655246 0.016727652
0000a0 18 e1 2c 3d 3c 27 5d bd f9 e7 08 bd 13 20 5f 3d
       0.042206854 -0.053992495 -0.03342435 0.054473948
0000b0 c7 ac f0 3d 06 0a 5d 3c 0a 11 8d 3b 15 2e 5d 3c
       0.11751705 0.013491159 0.0043050097 0.013499756
0000c0 11 3c 3b bd 32 97 c7 3b f4 14 1d 3d b2 42 19 3e
       -0.04571158 0.006091022 0.03835006 0.14966848
0000d0 23 ad 86 bd 1c 49 47 bd f3 ef a5 3c f6 32 93 3d
       -0.06575992 -0.048653707 0.020256018 0.071874544
0000e0 8e 10 be bd bf 00 23 bd d5 20 48 bc 23 ad 82 bd
       -0.09280501 -0.039795633 -0.012214859 -0.063806795
0000f0 01 ea 61 3c 01 96 80 3d da 14 c0 3c d0 54 27 be
       0.013788701 0.06278611 0.023447443 -0.16340947
000100 71 f0 c8 bd bc 9c b7 bd 69 d7 0e bd 7f c8 66 ba
       -0.098114856 -0.089654416 -0.0348734 -0.000880368
000110 b0 89 84 3d 2e be 2e 3d 9f ce 66 bc 98 c6 8d bd
       0.06471574 0.04266184 -0.014087348 -0.069226444
000120 d3 80 b6 3c 28 c3 7b bd 33 6d 82 bd c7 d8 23 3c
       0.022278225 -0.061465412 -0.06368484 0.010000414
000130 d9 7e 08 bd b9 9c 63 bd 36 23 3b 3c 9b 30 06 be
       -0.033324096 -0.055569384 0.011421969 -0.13104479
000140 9e 5b 05 bd a8 71 de 3c c9 e6 6b 3d 4d 02 29 3c
       -0.032558076 0.027153805 0.05759314 0.01031549
000150 6d ef 59 bd 02 f6 ab bd 9e 02 cd 3d 04 4c da bd
       -0.05320685 -0.08396532 0.10010265 -0.1065903
000160 13 36 87 3d a5 03 75 bb c1 50 f3 3b 37 12 02 be
       0.06602111 -0.0037386206 0.007425398 -0.12702261
000170 02 cc 03 bd e7 ab 6f bc f0 52 07 3d 4d 79 d9 ba
       -0.03217698 -0.014628387 0.03303808 -0.0016591937
000180 f9 f1 a9 3c ad a2 25 bc a4 01 86 bd 87 e8 54 3a
       0.020745264 -0.010109586 -0.06543282 0.00081218075
000190 83 5a bf 3d 5b db 55 3d 15 b0 48 bd 0c a0 48 be
       0.093434356 0.052211147 -0.04899605 -0.19592303
0001a0 0b 78 32 3d 9f 91 b7 bd 57 8a a0 bd fa ed 40 3d
       0.043571513 -0.08963322 -0.07838886 0.047101952
0001b0 74 60 18 bb 97 f1 bf 3d 3f ec ce 3d 56 5f be 3c
       -0.002325085 0.093722515 0.10103654 0.02323882
0001c0 1c 52 fa 3c a1 c6 3c 3c c4 87 ca bc 47 8b 14 bd
       0.03055673 0.011521966 -0.024722941 -0.036265638
0001d0 aa f3 a4 3c e7 6f cf b9 c4 95 33 bd 2f 94 d9 bd
       0.02013572 -0.0003956549 -0.043844 -0.10623967
0001e0 02 55 a8 bd bf 50 97 3b f9 9b dc 3d 82 79 dd bd
       -0.08219339 0.00461778 0.10771937 -0.108141914
0001f0 2f 08 af bb 3e 51 fa bb d4 7d 85 bc d2 33 d3 bd
       -0.0053415517 -0.0076390794 -0.016295351 -0.10312618
000200 4f c4 0b bd 7b 48 bb bd 95 9a 82 3d 44 70 57 bd
       -0.03412276 -0.09144684 0.063771404 -0.0525973
000210 aa b7 41 bc b4 95 64 bd 4a a8 6f 3d 04 3a c3 bd
       -0.011823574 -0.05580683 0.058510102 -0.0953255
000220 23 68 11 3c 52 25 ce bd 26 41 09 3d e5 e4 1f bd
       0.008874926 -0.10065712 0.033509396 -0.03903665
000230 4f 00 20 3d fa 00 75 bd cb a4 63 be 6f 41 fb 3c
       0.039062794 -0.059815384 -0.22230832 0.03067085
000240 25 f1 49 3b 81 a9 9c bc 69 0e 0f bc ef b5 9a bc
       0.00308139 -0.019123795 -0.008731463 -0.01888558
000250 52 e7 d3 bd 8e 54 6a bc 9d 44 4a 3e 14 d6 60 bd
       -0.10346855 -0.014302386 0.19752736 -0.05489166
000260 9b 66 ef 3c e4 94 f2 3d 1f c9 a9 3d da c7 e0 bb
       0.02922373 0.11844805 0.08290314 -0.0068597617
000270 6d 3b 57 3d f2 78 19 bd 06 31 0d 3e 4c fd 45 3d
       0.052546907 -0.037468858 0.13788232 0.048337266
000280 98 ca 98 3c 9f 4b ab bc 6f 7f 07 bd eb 8a 0c 3e
       0.018651292 -0.020910082 -0.033080515 0.13724868
000290 5e 96 98 3c 1b f8 3f bd a9 27 be bd a7 9a ad bc
       0.018626388 -0.04686747 -0.09284908 -0.021191908
0002a0 71 19 a9 3d e1 2d e6 3d 9b b5 1c 3e 50 ba 84 be
       0.08256806 0.112392195 0.15303652 -0.25923395
0002b0 8f dc e0 bd 2b 81 4b 3c 63 f0 3c bd a1 97 45 3e
       -0.10979568 0.012420933 -0.04612769 0.19296123
0002c0 72 c9 02 3e f5 1d 36 bd 44 7f 2f be 77 ff 58 bc
       0.12772158 -0.044462163 -0.17138392 -0.013244501
0002d0 82 9f 1b bb 7b 36 48 bc 9f 0c 1c bd 92 fc 33 bd
       -0.0023746197 -0.01222002 -0.038097974 -0.04394204
0002e0 0a ae 34 bd 9b 28 dc bd 52 3d 82 bd 6a 69 74 3c
       -0.04411129 -0.107499324 -0.06359352 0.014917711
0002f0 ed 33 87 3d 07 81 49 3c 23 84 a1 bd dd 79 8a bc
       0.06601701 0.012298829 -0.07886531 -0.016903812
000300 35 e3 69 3d bd f4 28 bd 8b 54 33 bd 7f 80 87 bd
       0.057101447 -0.041249026 -0.0437818 -0.066163056
000310 f3 37 bd 3c f4 7c 32 bd ac 52 02 3d 80 4a 68 3d
       0.023097968 -0.043576196 0.031817123 0.056711674
000320 a2 a2 d5 bb 8e 69 2b 3d 00 a2 bd bd ca a5 55 3d
       -0.0065196315 0.04184871 -0.09259415 0.052160062
000330 b0 ce f9 bb 4c 52 a4 3c 51 db 0f be cd 09 fc bb
       -0.007623516 0.020058773 -0.14048506 -0.007691598
000340 4f 06 9e 3d b9 20 bd 3d d4 f5 6c bd 87 45 a7 bd
       0.07716047 0.09234757 -0.057851627 -0.08167558
000350 d3 da 38 3d 98 86 1d 3d ed 4f 18 be e0 aa cd bc
       0.045130562 0.038458437 -0.1487424 -0.025105894
000360 af 19 f2 bd d7 bd 49 3d 5c c6 35 3d 28 7f c4 bc
       -0.11821305 0.04925331 0.044378623 -0.023986414
000370 c1 59 9d 3d 25 5e 0b 3e b8 ab 8e 3c 80 02 d1 3c
       0.07683135 0.13610132 0.017415866 0.025513887
000380 60 e4 9e bd c9 87 c7 ba e5 38 8f bd 08 d1 0e bc
       -0.07758403 -0.0015222962 -0.06993274 -0.008716829
000390 1f 47 96 bd e9 a1 a5 bd eb e9 c4 ba c9 85 d9 3d
       -0.07337784 -0.080875225 -0.0015023326 0.106212206
0003a0 e1 46 0f be 0e 44 a4 3d 0f 87 8b bd 18 41 0e bd
       -0.13991882 0.08020793 -0.0681287 -0.034730047
0003b0 cf e7 00 3e ff e0 d4 bc b5 51 7b bd 00 b5 10 3e
       0.12588428 -0.025986193 -0.06135722 0.14131546
0003c0 42 be 62 bd b9 6f 0a bd 7e 0b 80 bb 35 ba 91 bd
       -0.055357225 -0.033797953 -0.00390762 -0.07115594
0003d0 e7 68 90 3d a4 be a3 bd 9b 40 bf bd cb 6b 01 3e
       0.070512585 -0.07995346 -0.093384944 0.12638776
0003e0 4f 5e c2 3d 96 15 f4 3c a0 3a 15 3d ea 0a 84 bd
       0.09490644 0.02979545 0.036432862 -0.06447394
0003f0 e8 89 98 bd c3 f3 27 be 89 ef 62 3d fa 7b 11 3c
       -0.074481785 -0.16401581 0.05540422 0.008879656

fc1.bias f4 [100]
000000 e7 c1 e1 3d cd cb a2 3d a7 f2 b1 bd be 68 c4 3d
       0.11023312 0.07949028 -0.086888604 0.095902905
000010 c0 23 56 bd e4 52 57 be 93 33 36 3d fa 16 12 3d
       -0.052280188 -0.21027714 0.04448278 0.035666443
000020 f4 0d 22 3e 4d f1 41 bc 67 16 24 3e 80 26 80 3e
       0.15825635 -0.011837316 0.16024171 0.25029373
000030 36 fe 30 be 3c 94 d9 3d c2 b0 9b be a3 41 4e be
       -0.17284474 0.106239766 -0.30408293 -0.20142226
000040 c9 9e 68 3d 45 89 46 bb d1 22 06 bd a8 2a f4 3c
       0.056792054 -0.0030294221 -0.032748047 0.029805496
000050 4a e0 4f 3d 82 58 0a 3e ff 7e a7 bd 0f 5a 94 3d
       0.050751008 0.13510326 -0.081785195 0.0724374
000060 39 f8 9a bd 65 55 a2 bc 58 d2 1e bd e3 b6 18 bd
       -0.07566876 -0.01981611 -0.03877482 -0.03728379
000070 2e 34 a3 bd 63 6a e3 bd 0b a7 4e bd 2f 03 4e 3e
       -0.07968937 -0.11104276 -0.050452273 0.20118402
000080 1b 9e a2 bd ab 27 9c bd 33 7a 54 3d 41 c8 5c 3e
       -0.079403125 -0.076247536 0.05187435 0.21560766
000090 ab a2 3c 3d c8 58 38 3e 7c 9e 64 bd b9 44 a0 bd
       0.04605357 0.18002617 -0.055815205 -0.07825608
0000a0 81 0e 77 bd 7d b8 d8 bd 64 0e 04 3e 59 30 b6 bd
       -0.060316566 -0.10582063 0.12896115 -0.0889594
0000b0 f3 08 c6 bd a9 77 3a 3e b9 60 66 3d b7 12 f8 bd
       -0.09669676 0.18209709 0.056244586 -0.121129446
0000c0 41 91 2b bd ca 50 93 bd 12 9a 88 bd ad fb 33 3d
       -0.04188657 -0.07193144 -0.066700116 0.04394119
0000d0 ec 14 a0 3d 9f f4 91 bd 20 7d 36 bd 56 1d 1f bd
       0.078164905 -0.07126736 -0.044552922 -0.038846336
0000e0 c2 80 9f 3b 2a 0d 08 bd 85 0d ae bc a2 5a 3d be
       0.004867644 -0.03321568 -0.021246681 -0.18491605
0000f0 4b 05 fe 3d 7e 7e 45 3e bc f2 ba bd b6 c8 23 be
       0.12403353 0.19286534 -0.09128329 -0.15994534
000100 f4 43 ce bd fd 02 32 3e 6e 90 3c 3e fa fb fe bc
       -0.10071555 0.17383952 0.1841447 -0.031126011
000110 b4 88 4f bd 97 65 23 3e d5 7c 93 bc 63 bc 35 bd
       -0.05066748 0.15956722 -0.01800386 -0.044369113
000120 53 0d 7c bd 30 02 20 be f5 28 18 3e c0 27 ab 3d
       -0.061536144 -0.15625834 0.14859374 0.08357191
000130 67 ff 24 bd 33 44 07 3d 4d 4b b4 bd 08 d2 61 bd
       -0.040282633 0.033024024 -0.08803425 -0.055131942
000140 55 8d eb 3c 88 db 19 be 56 ea 07 3e 67 2d 21 3d
       0.028753916 -0.15025151 0.13272986 0.03934994
000150 47 d5 73 bd a0 e0 14 bd f5 f5 b6 3c fd c9 4e bd
       -0.05952957 -0.03634703 0.022334078 -0.0504856
000160 6c 29 91 3c b8 b7 ca bd fe 4e 7d bd 9e b1 b2 bd
       0.017719947 -0.09898323 -0.06184291 -0.08725284
000170 29 ed ba 3d 24 a3 87 be 79 c9 c2 3d 3f 7d 2e bd
       0.09127266 -0.26491654 0.09511084 -0.042599913
000180 4c b3 f3 3d 96 ad 31 bd ab 9e dd 3d 7f 0d 7b bd
       0.118994325 -0.043378435 0.10821279 -0.061292168

fc2.weight f4 [10, 100]
000000 a1 78 48 bc e3 61 ad 3c 89 e0 6e 3c 33 06 c5 3c
       -0.012235791 0.02116484 0.014579901 0.024050808
000010 36 9b 8d bc 0a ac ca bc da be 64 bd e3 8e b6 3b
       -0.017285924 -0.024740238 -0.055846073 0.0055712326
000020 26 a7 f6 3a be 09 65 3b 1b 6e 7f 3d 7a e7 78 bd
       0.0018818125 0.0034948434 0.062360864 -0.06076763
000030 8e 5d 32 3c 5b 1a 22 bc 73 5f 00 3e c7 22 28 bd
       0.010886563 -0.009893979 0.12536411 -0.04104879
000040 9a 9c c6 3b 2a df da 3d 31 9c 46 bd 88 54 82 3c
       0.006061149 0.106870964 -0.0484888 0.015909448
000050 e5 21 06 3c fc 65 0d bd 5d 54 e0 3b 6e a6 91 bb
       0.008186792 -0.034521088 0.0068459944 -0.004444889
000060 b4 6e 51 3b e9 41 b2 3c da e2 48 3c 18 b7 2d bb
       0.0031956853 0.021759944 0.012261117 -0.0026506837
000070 be 97 86 3a f9 e3 fb 3c 4b af 6d 3c 70 4e fa bb
       0.0010268611 0.030748354 0.014507125 -0.007638745
000080 1c fe 8e 3b a4 38 e9 3b 6c e7 4c bd 22 ec e8 bc
       0.0043637883 0.007117348 -0.05002539 -0.02843291
000090 5f e7 c0 bc a9 a1 f4 3c b8 c5 b2 3b 0d a7 3a bc
       -0.023547826 0.029862242 0.005455699 -0.011392367
0000a0 05 d2 85 3c 84 8c ca 3a eb 02 20 bd f9 69 03 bd
       0.016335497 0.0015453254 -0.039065283 -0.032083485
0000b0 6d f8 83 3b 5d 55 90 3c f2 e8 a6 3b 3a 17 85 bc
       0.0040274174 0.01761883 0.005093687 -0.016246427
0000c0 6c c0 6e 3d f4 1c 1b 3c 2f bc 9b bc c2 3d f8 ba
       0.058288977 0.009467352 -0.019010631 -0.0018939304
0000d0 21 ab 89 bc 67 59 d2 3b 3a f5 62 bd ec 05 9d bc
       -0.016805233 0.006419349 -0.055409648 -0.019167863
0000e0 6e b1 75 3b 3a 6a e0 bb 1c 43 ae 3c cc a2 a1 bc
       0.003748979 -0.0068486007 0.021272235 -0.019730948
0000f0 79 a2 75 bc ae 0c 87 bb c4 81 56 bd ac 72 db 3c
       -0.01499235 -0.0041213846 -0.052369848 0.026788078
000100 a2 d1 37 3c 36 5d 10 bd 9f 65 40 bb ac cf 58 3b
       0.011219414 -0.035245143 -0.0029357446 0.0033082766
000110 85 48 7a bc 43 04 91 bd f8 f0 bc 3c 15 f0 2d bc
       -0.015276079 -0.07080891 0.023064122 -0.010616322
000120 b2 8f c0 3c 86 5a 57 3c 9a ac 2e bc fd dc 8f 3c
       0.02350602 0.013144141 -0.010661269 0.01756143
000130 d5 88 cd 3c 4f 1e 12 bd e7 7a ed 3c c8 b5 a3 bc
       0.02508966 -0.035673436 0.028989268 -0.019984141
000140 1d e7 e6 bb f5 97 8c 3c 55 de 74 bb 81 73 38 3c
       -0.007046594 0.017162303 -0.0037363966 0.011258007
000150 97 d6 77 bd a5 78 84 ba a4 bf cd 3c 7e e8 7f 3b
       -0.060507383 -0.0010106756 0.025115795 0.0039048488
000160 c0 17 29 3b c2 82 b6 bc 2c 7f 08 bc d8 ca 03 bd
       0.002580151 -0.022279147 -0.008331101 -0.03217587
000170 38 aa ea 3c f7 9f 06 3d 03 c7 f3 bb ad df 19 3d
       0.02864562 0.032867398 -0.0074394955 0.03756683
000180 c1 54 30 3c 47 ed e1 bb 54 74 0a 3d 6c ae 1e 3d
       0.010762394 -0.0068947407 0.033802345 0.03874056
000190 97 05 d1 3b 63 f4 cc 3b 61 88 dc bc a8 95 00 bd
       0.00637884 0.006254719 -0.0269205 -0.031392723
0001a0 f8 a8 59 3b 78 8f 82 3d bf 77 b2 bc 91 84 80 3c
       0.0033212285 0.06375021 -0.021785615 0.015688213
0001b0 08 c6 d1 3c 6d 19 ab bb 43 14 d8 bc d5 d9 02 be
       0.025607124 -0.005221537 -0.026376849 -0.12778409
0001c0 8f c1 aa 3c 1d 07 4f 3d 54 ef 4a bd 90 38 2d 3c
       0.020844249 0.050543893 -0.049544647 0.010572568
0001d0 37 0f c8 3b 47 e7 79 bc c4 9a 48 3b 24 38 00 bb
       0.0061053294 -0.015252895 0.0030609826 -0.0019564712
0001e0 33 1e 85 3c ef 1a bf bb 98 1f 07 bd 50 f6 2e bd
       0.016249752 -0.005832068 -0.032989115 -0.04271537
0001f0 af 3a 45 bc da f8 97 bc a5 d0 cf bb 70 9d b7 3a
       -0.012037917 -0.018551279 -0.006342011 0.0014008712
000200 a0 f3 ba bc 55 66 7c 3d 53 92 76 bc b4 ab 44 bd
       -0.022821248 0.06162103 -0.015049535 -0.04801531
000210 43 e1 51 bb 5d ff 0e bc 68 0a 23 3d 92 3d 29 bd
       -0.0032025136 -0.008727876 0.039804846 -0.041318484
000220 fd 5a ad bc 00 52 0a bc 5c 69 97 bb b4 ed b4 3c
       -0.02116155 -0.008442402 -0.004620714 0.022086002
000230 75 55 d6 3a 51 a3 bd 3c 2c 6e 9d ba 0e ad 1f 3c
       0.0016352372 0.023149164 -0.0012010983 0.009745849
000240 9b 7f 88 3b 44 bf 52 3d 21 c5 2a 39 8b 91 17 ba
       0.0041656024 0.051451936 0.000162859 -0.00057818805
000250 55 17 d1 3b a6 e4 3f bc 72 17 fb ba ec a7 b8 3b
       0.006380955 -0.011712229 -0.0019156768 0.005635252
000260 e4 46 29 bc f4 a6 ab 3b dc fd 9b 3b fa 27 42 3c
       -0.010331843 0.005238408 0.004760487 0.0118503515
000270 86 d4 f0 bb e0 a5 ad 3c c3 b8 a4 bb a5 a1 51 3d
       -0.0073495535 0.02119726 -0.005026908 0.051179547
000280 62 e8 86 bc 9c ee b1 3b 2b 53 2e bc be c1 20 3d
       -0.01646823 0.005430056 -0.010639946 0.039247267
000290 1f 1a b5 bc 1d 90 47 3b ab 6d 24 bc 72 83 98 ba
       -0.022107182 0.0030450888 -0.0100359125 -0.0011635853
0002a0 97 1b 89 3c 6e 61 3c 3c 0e 56 9e 3b bc 3e 49 b9
       0.016736789 0.011497838 0.004832036 -0.00019192224
0002b0 f3 77 10 3c 8d 5c f6 3b 9a 46 14 3c 37 d0 e4 bc
       0.008817661 0.007518357 0.009050036 -0.027931316
0002c0 3d 59 99 ba a5 4a 55 bc 62 67 32 3c ff 5a 24 bc
       -0.0011699569 -0.013018285 0.010888906 -0.010031461
0002d0 70 7e db ba 6b 1e f6 3c 9f e1 10 bc f1 bf 83 3c
       -0.0016746055 0.030043801 -0.008842855 0.016082736
0002e0 cb c9 b0 3d 82 c2 87 bc 10 08 06 3d 79 11 fa ba
       0.08632239 -0.01657224 0.032722533 -0.0019078694
0002f0 3c fb f0 3c 61 af 69 3c ca d4 90 bc 27 ff 08 bc
       0.029416673 0.014263005 -0.01767959 -0.008361614
000300 bb d8 fa bb 7f 6d 13 3e c0 8f 82 3c e2 38 82 bb
       -0.007655231 0.14397238 0.015937686 -0.003974066
000310 e1 a6 26 bc 70 ca 9a 3c 35 57 75 bd 5f b8 01 bb
       -0.010171623 0.018895358 -0.05989762 -0.0019793732
000320 24 9d be 3b 2d 40 39 bc 5c 3d b4 3c ab 5a 39 bd
       0.0058170725 -0.011306805 0.022001915 -0.045252483
000330 6b c2 59 bc b3 2c f3 bc 80 cd 0e 3d 2c 5a cd bb
       -0.013290982 -0.0296844 0.03486395 -0.006266853
000340 f3 d6 1f bd 1b d6 b5 3c 27 47 8c 3d df 79 5e 3c
       -0.03902335 0.02219682 0.06849509 0.013578861
000350 4d 07 df 3c a1 e0 af bc 08 20 b7 bd c8 c4 a0 3d
       0.027225161 -0.021469416 -0.08941656 0.07850033
000360 6e 0c a4 3d 8e 9d 93 3c f2 70 39 ba d6 b5 a6 bc
       0.08010183 0.018019464 -0.000707402 -0.020350378
000370 22 1c 74 3c 79 d6 06 3b 7f ee 0e 3c da 16 07 bc
       0.0148992855 0.0020574613 0.008723854 -0.008245194
000380 56 73 f7 3c be 27 75 3b a9 6d 95 3c d3 fb 42 3c
       0.030206364 0.0037407721 0.018240767 0.01190086
000390 f2 09 06 bc 41 bd 9e 3c 90 69 87 3c 26 27 5c 3b
       -0.008181082 0.019377353 0.016529828 0.003359267
0003a0 85 2c d3 bd b6 b9 0b 3b 40 a8 1f bd 58 3c a7 3c
       -0.10311226 0.002132041 -0.038978815 0.020414516
0003b0 04 5d 1a bc 85 88 cd 3c 35 5c 5e 3c 82 25 2c 3c
       -0.009421591 0.025089512 0.013571789 0.010506989
0003c0 75 15 79 bc 55 7f 84 3c 8c 3f 8b 3d b8 f1 38 bc
       -0.01520287 0.016173998 0.0679923 -0.011288099
0003d0 9b 8a 27 3c aa b5 75 bb 0d ba 3f 3d f6 b1 e2 3c
       0.010225917 -0.0037492313 0.04680829 0.027672749
0003e0 20 1d 58 bc 84 1f 8a bb 6e 91 b2 3c f5 bd 84 b9
       -0.013190538 -0.0042151827 0.021797862 -0.0002531853
0003f0 9c 4f 00 3c 26 bc 05 bc f9 8d b1 37 de 56 67 3b
       0.00783148 -0.008162534 2.1166155e-05 0.003529958

fc2.bias f4 [10]
000000 5a 20 28 be e4 ba 13 be f8 ce 2d 3e 5e 00 26 be
       -0.16418591 -0.14426762 0.16973484 -0.16211078
000010 d2 b7 44 3c ea 52 e6 3c 44 f6 19 be a0 1e 4a 3e
       0.012006717 0.028115708 -0.15035349 0.19738245
000020 51 89 03 3e 95 dc 40 3e
       0.12845351 0.18834145
