model/modelFCNet/LfwNet/RReLU/FCNet_epoch3_Cluster2.pkl (torch_old, 107634 bytes, 4 tensors)

fc1.weight f4 [100, 256]
0	0xbd9e7c5f	-0.07738566
1	0x3c15766d	0.009122473
2	0x3dbe8999	0.093035884
3	0x3e3b3b1f	0.18284272
4	0xbd9d0e84	-0.07668784
5	0xbd9ecf09	-0.077543326
6	0xbdec55be	-0.115397915
7	0xbde6f020	-0.11276269
8	0x3d3f461c	0.04669772
9	0xbc8eba06	-0.017422687
10	0xbda24d83	-0.079249404
11	0xbdba21e8	-0.09088498
12	0x3e0521fd	0.13001247
13	0xbc3a8179	-0.011383408
14	0xbdbe88cb	-0.09303435
15	0x3b923546	0.004461917
16	0x3db6efca	0.08932455
17	0xba3bffc9	-0.0007171599
18	0xbe5770b8	-0.21039093
19	0x3cf60b99	0.030034827
20	0xbe102f80	-0.1408062
21	0xbd80b132	-0.06283797
22	0xbe8e68f0	-0.27814436
23	0xbca2ce75	-0.019873837
24	0xbdc09cd5	-0.09404913
25	0xbd41280b	-0.04715733
26	0x3cd31892	0.025768552
27	0x3d52e650	0.051489174
28	0xbdd1e627	-0.10248976
29	0xbd7cf017	-0.061752405
30	0xbd4d63d6	-0.05014404
31	0x3d7785d5	0.060430367
32	0xbcd85d09	-0.02641155
33	0xbd2ade37	-0.041715827
34	0xbb92a287	-0.004474941
35	0x3e020090	0.12695527
36	0x3cae1e0b	0.02125456
37	0x3cfaca03	0.030613905
38	0x3dd7ca3f	0.10536622
39	0x3c2b74c3	0.01046485
40	0x3d40cfc7	0.047073152
41	0xbd73436c	-0.05939047
42	0xbcf71be9	-0.030164676
43	0x3d80b2d8	0.06284112
44	0x3df32496	0.118722126
45	0x3c8d8b8b	0.017278453
46	0xbbf5a58f	-0.0074965428
47	0x3d09b472	0.03361935
48	0xbd43a779	-0.047767136
49	0x3bcbf88e	0.0062246984
50	0x3d1949c4	0.037423864
51	0x3e192e99	0.14959182
52	0xbd8035e5	-0.062602796
53	0xbd5e4846	-0.054268144
54	0x3c45c029	0.01206974
55	0x3da12b22	0.07869555
56	0xbdb38bf3	-0.087669276
57	0xbd04b497	-0.032398786
58	0xbc40ac35	-0.011759807
59	0xbd8fe618	-0.07026309
60	0x3caa1882	0.02076364
61	0x3d61f1d6	0.055162273
62	0x3cd3fcb3	0.025877332
63	0xbe33b39d	-0.17548986
64	0xbdb0cdf2	-0.08633031
65	0xbdadd790	-0.08488381
66	0xbd1213cc	-0.03566341
67	0x3a6f2d8d	0.0009123914
68	0x3d9b5606	0.07584767
69	0x3d3660f2	0.044526048
70	0xbc211732	-0.00983219
71	0xbd7d3fe1	-0.061828498
72	0x3cd7324d	0.026269102
73	0xbd220ce2	-0.039563067
74	0xbd8bdb40	-0.06828928
75	0x3cc65e7b	0.024214974
76	0xbcfb5768	-0.030681327
77	0xbd7cd53b	-0.06172679
78	0x3c85d333	0.01633606
79	0xbe0440bc	-0.12915319
80	0xbccf6d8d	-0.025320793
81	0x3cd58133	0.026062584
82	0x3d706179	0.058686707
83	0xbb427f4d	-0.0029677928
84	0xbd478381	-0.048709396
85	0xbdafa66a	-0.08576663
86	0x3dc57ba8	0.09642726
87	0xbdd42e73	-0.10360422
88	0x3d77f2d1	0.060534302
89	0x3aff9370	0.0019498896
90	0x3adefa53	0.0017011858
91	0xbdf84438	-0.12122387
92	0xbc953291	-0.018212589
93	0xbc42432b	-0.011856834
94	0x3d176fc7	0.036971834
95	0x39d78473	0.00041106678
96	0x3cdf2e00	0.027243614
97	0xbbd74c31	-0.006570362
98	0xbd7a21af	-0.06106728
99	0x3b9172a3	0.0044387146
100	0x3dac6a86	0.08418755
101	0x3d5ec1dc	0.054384097
102	0xbd308ab3	-0.043101024
103	0xbe4a67f7	-0.19766222
104	0x3d3ffe5b	0.04687343
105	0xbdc42063	-0.0957649
106	0xbd7a9cea	-0.0611848
107	0x3d4a636e	0.04941123
108	0x3befddde	0.00732015
109	0x3db002d7	0.08594292
110	0x3dce9a93	0.100880764
111	0x3cc4c96b	0.024021825
112	0x3d1230a3	0.035690915
113	0x3cb72139	0.022354709
114	0xbd01b482	-0.031666286
115	0xbd27ea2a	-0.0409948
116	0x3cf29dfd	0.02961635
117	0x3be49a3c	0.006976394
118	0xbccc7a84	-0.024960764
119	0xbdee3ecf	-0.116330735
120	0xbdb5f5f4	-0.088848025
121	0x3bf8ef35	0.007596875
122	0x3de32fb6	0.110930845
123	0xbde07a9b	-0.10960885
124	0xbc023311	-0.0079467455
125	0x3bccad6c	0.0062462594
126	0xbc75a2c1	-0.014992417
127	0xbdefabeb	-0.117027126
128	0xbd1e6535	-0.038670737
129	0xbdb6a1f4	-0.08917609
130	0x3d78ba6d	0.060724664
131	0xbd792ccd	-0.06083374
132	0xbb976b94	-0.0046209786
133	0xbd5b0c4f	-0.053478535
134	0x3d7f9755	0.06240018
135	0xbdc8813b	-0.09790274
136	0x3c25762a	0.010098973
137	0xbddd9570	-0.108195186
138	0x3cfb4c73	0.030676102
139	0xbd3088d8	-0.043099254
140	0x3d543e0f	0.051816996
141	0xbd63be53	-0.05560143
142	0xbe6ce9e5	-0.23136099
143	0x3d1c00f6	0.038086854
144	0x3b105938	0.0022025835
145	0xbc8f285a	-0.017475296
146	0xbba339fb	-0.004981277
147	0xbc5cc0a2	-0.013473662
148	0xbdf8203c	-0.12115523
149	0xbc9d47b0	-0.019199222
150	0x3e4901c0	0.19629574
151	0xbd5a1e9b	-0.053251844
152	0x3d35772e	0.04430311
153	0x3def349a	0.11679955
154	0x3da8b3ba	0.08237405
155	0xbbe308de	-0.0069285473
156	0x3d82158f	0.06351768
157	0xbd352303	-0.044222843
158	0x3e09734f	0.13422893
159	0x3d23e0d7	0.040009346
160	0x3cef2c95	0.029196063
161	0xbcf7a290	-0.030228883
162	0xbd23f8d9	-0.04003224
163	0x3e06eb8e	0.13175794
164	0x3ba50ea0	0.005037144
165	0xbd2f86ee	-0.04285329
166	0xbdbf9603	-0.09354784
167	0xbc9b28ca	-0.018940348
168	0x3dc5cdd5	0.096584
169	0x3df05339	0.117346235
170	0x3e0a88fd	0.1352882
171	0xbe84e166	-0.25953215
172	0xbdcf4518	-0.101206005
173	0x3c2cba18	0.010542415
174	0xbd2ae751	-0.041724507
175	0x3e3d28c2	0.18472579
176	0x3e00e4c6	0.1258727
177	0xbd23dab6	-0.0400035
178	0xbe3109f8	-0.17288959
179	0xbc68bf85	-0.014205818
180	0xbc20cec1	-0.009814919
181	0xbc1e314d	-0.009655309
182	0xbd21cc1b	-0.03950129
183	0xbd42b6a3	-0.047537457
184	0xbd252005	-0.04031374
185	0xbdd03f17	-0.101682834
186	0xbd816156	-0.063173935
187	0x3c9b54ff	0.018961428
188	0x3d812876	0.063065454
189	0x3c66e52d	0.014092726
190	0xbdb5445d	-0.0885093
191	0xbc92e15c	-0.017929725
192	0x3d38ef42	0.04515005
193	0xbcbf433d	-0.023347491
194	0xbd32e6ad	-0.04367702
195	0xbd6d880e	-0.05799108
196	0x3c9a930f	0.018868951
197	0xbd3f6f5c	-0.04673706
198	0x3d085ea9	0.0332934
199	0x3d64feda	0.055907108
200	0xbbb62f4b	-0.005559837
201	0x3d4d2fe7	0.05009451
202	0xbdc9ad71	-0.098475344
203	0x3d5dff85	0.05419876
204	0xbce0f4ba	-0.027460445
205	0x3c596650	0.013269022
206	0xbe17af7a	-0.14813033
207	0xbc1ff780	-0.009763598
208	0x3d92817a	0.07153602
209	0x3da85940	0.08220148
210	0xbd6ef9a0	-0.05834353
211	0xbda8207e	-0.082093224
212	0x3d4a6622	0.049413808
213	0x3d0bae78	0.034101933
214	0xbe25183e	-0.16122529
215	0xbc9c0389	-0.019044654
216	0xbe01e2e0	-0.12684202
217	0x3d6863d8	0.056735843
218	0x3d317595	0.043325026
219	0xbce94268	-0.028474048
220	0x3d8cd11e	0.068758234
221	0x3e0687cb	0.13137738
222	0x3c5d2263	0.013496968
223	0x3ccb3f79	0.02481054
224	0xbd69dc8b	-0.05709509
225	0xbc15a333	-0.009133148
226	0xbd87f898	-0.06639212
227	0x3b7be3bb	0.0038435298
228	0xbd90572a	-0.07047875
229	0xbda3a787	-0.07990938
230	0xbac5753e	-0.0015064848
231	0x3de0d1ef	0.10977542
232	0xbe1ba5a8	-0.15199912
233	0x3da3ec45	0.08004049
234	0xbd8cfb9d	-0.06883929
235	0xbd3679c8	-0.044549733
236	0x3e03e843	0.1288157
237	0xbcdbbcbb	-0.026823392
238	0xbd648d51	-0.055798832
239	0x3e062e37	0.13103567
240	0xbd5752e8	-0.0525693
241	0xbd189202	-0.03724862
242	0xbb408d19	-0.0029380976
243	0xbd962447	-0.07331138
244	0x3d914802	0.070938125
245	0xbda9b382	-0.082861915
246	0xbdb6e151	-0.089296944
247	0x3e003399	0.12519683
248	0x3dc57c28	0.096428216
249	0x3d0f1ff3	0.03494258
250	0x3d288600	0.041143417
251	0xbd521413	-0.051288676
252	0xbda89051	-0.08230651
253	0xbe1bf5d9	-0.15230502
254	0x3d2f4092	0.04278619
255	0x3c54e15e	0.012993185

fc1.bias f4 [100]
0	0x3ddecba8	0.10878688
1	0x3da24055	0.079224266
2	0xbdb43427	-0.0879901
3	0x3dbb16a4	0.09135178
4	0xbd55f8bc	-0.052239165
5	0xbe575779	-0.21029462
6	0x3d384914	0.044991568
7	0x3d164e27	0.036695626
8	0x3e23483b	0.15945522
9	0xbc40b5af	-0.011762067
10	0x3e24d864	0.16098171
11	0x3e80b0b7	0.25134823
12	0xbe2e7211	-0.170357
13	0x3dd570e3	0.10421922
14	0xbe9b8adc	-0.3037938
15	0xbe4d6972	-0.20059755
16	0x3d6125bb	0.054967623
17	0xbb6dd889	-0.0036292395
18	0xbd10d3b2	-0.03535814
19	0x3cd57ea6	0.026061367
20	0x3d53aca2	0.051678307
21	0x3e0d743a	0.13813868
22	0xbda68f37	-0.08132785
23	0x3d87ddbb	0.066340886
24	0xbda02b44	-0.07820752
25	0xbc963791	-0.018337043
26	0xbd298e64	-0.04139556
27	0xbd144307	-0.036196735
28	0xbda2c8f0	-0.07948482
29	0xbddcba9c	-0.107777804
30	0xbd449896	-0.04799708
31	0x3e4cbe2d	0.19994421
32	0xbda1e81d	-0.079056
33	0xbd98af7d	-0.07455347
34	0x3d548b92	0.051890917
35	0x3e5d301d	0.21600385
36	0x3d3282b9	0.043581698
37	0x3e375ad1	0.17905737
38	0xbd5b8eb3	-0.053602885
39	0xbd9afd8b	-0.07567891
40	0xbd7c2a2d	-0.06156366
41	0xbde2c385	-0.11072449
42	0x3e043617	0.12911259
43	0xbdb7f6d0	-0.089826226
44	0xbdcc99b4	-0.09990254
45	0x3e393132	0.18085173
46	0x3d5fd8b1	0.054650012
47	0xbdf615bd	-0.12015865
48	0xbd3a9af2	-0.045557924
49	0xbd977cae	-0.07396828
50	0xbd82ba2a	-0.06383164
51	0x3d2b1ce2	0.04177559
52	0x3da32f8b	0.079680525
53	0xbd9795a7	-0.07401591
54	0xbd2ee70a	-0.042700805
55	0xbd1a4c88	-0.037670642
56	0x3bdb101d	0.0066852705
57	0xbd04ed69	-0.032452974
58	0xbcb03bbe	-0.021512862
59	0xbe3fbf88	-0.18725407
60	0x3dfe070b	0.12403687
61	0x3e44fcc4	0.19237047
62	0xbdb3b58b	-0.08774861
63	0xbe247e02	-0.16063693
64	0xbdcf779f	-0.10130238
65	0x3e31e1ff	0.17371367
66	0x3e3e456b	0.18581168
67	0xbcf6b79f	-0.030116854
68	0xbd574fea	-0.052566446
69	0x3e25392a	0.16135088
70	0xbc95272d	-0.018207157
71	0xbd312eb8	-0.043257445
72	0xbd7cc636	-0.061712466
73	0xbe1f15ff	-0.15535735
74	0x3e1abfb0	0.15112185
75	0x3da3f1d2	0.08005108
76	0xbd204d5f	-0.039136287
77	0x3d112e87	0.035444763
78	0xbdb7fb05	-0.08983425
79	0xbd5b0c1d	-0.05347835
80	0x3d070ba5	0.03297009
81	0xbe17fe68	-0.14843142
82	0x3e05d080	0.13067818
83	0x3d244320	0.040103078
84	0xbd74bb39	-0.059748862
85	0xbd0f9b85	-0.035060424
86	0x3caf4dcd	0.021399403
87	0xbd4abf97	-0.04949912
88	0x3c659f06	0.014014965
89	0xbdcf7c0d	-0.10131083
90	0xbd7d38e0	-0.06182182
91	0xbdb1219e	-0.0864899
92	0x3dbd2c16	0.09236924
93	0xbe87036a	-0.26369792
94	0x3dc2f098	0.09518546
95	0xbd3be76c	-0.045874998
96	0x3dfeb8b5	0.12437574
97	0xbd249f89	-0.040191207
98	0x3dde4ff0	0.108550906
99	0xbd7ffc54	-0.0624965

fc2.weight f4 [10, 100]
0	0xbc97e3dd	-0.01854127
1	0x3c907025	0.0176316
2	0x3c8d8078	0.017273173
3	0x3ccf1210	0.025277168
4	0xbc992957	-0.01869647
5	0xbccccee5	-0.025000999
6	0xbd5e26f5	-0.05423637
7	0x3b97bd81	0.004630745
8	0x3b0bf4c5	0.002135561
9	0x3ca79011	0.020454438
10	0x3d809de4	0.06280115
11	0xbd83e1c6	-0.06439547
12	0x3c3bad6d	0.011454922
13	0xbc194f04	-0.009357218
14	0x3e05fee4	0.13085514
15	0xbd238df7	-0.03993031
16	0x3bcfa100	0.0063363314
17	0x3ddb5211	0.10709012
18	0xbd3aae08	-0.045576125
19	0x3c968756	0.01837508
20	0x3c66f262	0.0140958745
21	0xbd218fdc	-0.039443836
22	0x3b6fe848	0.0036606956
23	0xbbf7060a	-0.0075385617
24	0x3a18a00f	0.00058221904
25	0x3c685d85	0.014182453
26	0x3c0ea9ec	0.008707505
27	0x3c3afb65	0.011412476
28	0xbafffed1	-0.0019530897
29	0x3cfbee86	0.030753385
30	0x3c7748a2	0.015093001
31	0xbb8563e5	-0.0040707462
32	0x3b335180	0.002736181
33	0x3ac21354	0.0014806786
34	0xbd3f04e3	-0.04663552
35	0xbcd0e197	-0.025498195
36	0xbc9270ae	-0.017875995
37	0x3d0347eb	0.03205101
38	0xbb8e2842	-0.004338295
39	0xbbf4487e	-0.007454931
40	0x3cc338e5	0.02383084
41	0x3ba97884	0.0051718373
42	0xbd2bfb3c	-0.041987643
43	0xbd0bd4c1	-0.034138445
44	0x3b672dc5	0.0035275084
45	0x3c8e7690	0.01739052
46	0xbb5b1b4f	-0.0033433025
47	0xbc610bcd	-0.013735724
48	0x3d58825c	0.052858695
49	0x3bf0d827	0.007349986
50	0xbcaa2c88	-0.020773187
51	0xbbd1b949	-0.0064002615
52	0xbc77c335	-0.015122225
53	0x3c68c278	0.014206521
54	0xbd7a5a27	-0.061121132
55	0xbc90c0aa	-0.017669994
56	0x3a1397b4	0.00056302105
57	0xbb4f401c	-0.0031623906
58	0x3c80d280	0.015725374
59	0xbca82c26	-0.020528864
60	0xbc5f57c2	-0.013631763
61	0xbaf8b5c7	-0.0018975072
62	0xbd4e5f0b	-0.05038361
63	0x3cc98815	0.024601022
64	0x3c50f7a8	0.012754358
65	0xbcea266c	-0.028582774
66	0xbb23ee43	-0.0025013841
67	0x3ba24f4d	0.004953301
68	0xbc9338af	-0.017971365
69	0xbd88249e	-0.06647609
70	0x3c8241cf	0.01590052
71	0xbc411820	-0.011785537
72	0x3c90bbeb	0.017667731
73	0x3c248744	0.010042015
74	0xbc6e1ba1	-0.014532954
75	0x3c76d7c0	0.015066087
76	0x3cbae84f	0.022815851
77	0xbd143806	-0.03618624
78	0x3d10d6be	0.035361044
79	0xbc784f6f	-0.015155657
80	0xbbd38be2	-0.0064558843
81	0x3c905d17	0.017622514
82	0xbb44ed57	-0.0030048692
83	0x3c4ceb39	0.012507253
84	0xbd8690fd	-0.06570623
85	0x3ad10681	0.0015947373
86	0x3cc01448	0.02344717
87	0x3ca5fe28	0.020262793
88	0x3c67358b	0.014111887
89	0xbcbc6da4	-0.0230015
90	0xbb56a72b	-0.0032753448
91	0xbd049084	-0.032364383
92	0x3cf2cd6c	0.029638968
93	0x3d0317c4	0.032005087
94	0xbc690150	-0.014221504
95	0x3cef622d	0.029221619
96	0x3bac7468	0.0052629
97	0xbbbcbf89	-0.0057601375
98	0x3d211308	0.03932479
99	0x3ce25ef4	0.027633168
100	0x3c56f6eb	0.013120393
101	0x3c00b4bd	0.007855591
102	0xbc823232	-0.015893076
103	0xbd03669e	-0.032080285
104	0x3b0196bd	0.0019773685
105	0x3d874448	0.066048205
106	0xbcb28361	-0.021791162
107	0x3c9b102b	0.018928608
108	0x3cb07d56	0.02154414
109	0x3baf3aec	0.0053476
110	0xbcf9853b	-0.030459037
111	0xbdf8cb9a	-0.12148209
112	0x3cbbeb10	0.022939235
113	0x3d37e186	0.04489281
114	0xbd4a7360	-0.049426436
115	0x3c3d3e69	0.011550524
116	0x3c3015f0	0.010747418
117	0xbc79ae51	-0.015239314
118	0xbbd79365	-0.00657885
119	0xbb39afe8	-0.0028333608
120	0x3c8d9691	0.01728371
121	0xba2d9422	-0.00066215
122	0xbd3269b4	-0.043557838
123	0xbd319858	-0.043358177
124	0xbca7e317	-0.020494027
125	0xbca7662a	-0.020434458
126	0xb890ce1e	-6.9048474e-05
127	0xbc1e3e48	-0.009658404
128	0xbcfbd939	-0.030743228
129	0x3d811cc8	0.06304318
130	0xbc320a3d	-0.010866699
131	0xbd152962	-0.03641642
132	0xbb72651c	-0.0036986535
133	0xbbc0e9ca	-0.005887245
134	0x3d1e5d2e	0.03866308
135	0xbd337902	-0.043816574
136	0xbcd550d6	-0.026039522
137	0xbc19d935	-0.009390165
138	0xbbdd1792	-0.0067471946
139	0x3cc78343	0.024354583
140	0xba075893	-0.000516304
141	0x3c9b2a83	0.01894117
142	0x3b1a325d	0.0023528554
143	0x3bf635ab	0.007513722
144	0x39ba408c	0.00035524776
145	0x3d599c72	0.053127714
146	0xbbfae177	-0.007656272
147	0xbb975b67	-0.0046190503
148	0x3c5685a2	0.013093384
149	0xbc8b0cd3	-0.016973889
150	0xbc2ac114	-0.01042201
151	0x3b7c83ef	0.0038530787
152	0xbc1e7ac5	-0.009672825
153	0xbbeb2280	-0.0071757436
154	0xb9891506	-0.0002614634
155	0x3c9478c8	0.018124
156	0xbbce9dbb	-0.006305424
157	0x3ca5207d	0.020157093
158	0xbc206441	-0.009789527
159	0x3d2ee484	0.0426984
160	0xbcadf463	-0.021234697
161	0x3bb3545c	0.005472703
162	0xbc3fd409	-0.011708268
163	0x3d21d242	0.039507158
164	0xbd038375	-0.03210779
165	0x3ba4b090	0.0050259307
166	0xbc150c31	-0.009097145
167	0xbb7b9f64	-0.0038394565
168	0x3ce6a0c3	0.028152829
169	0x3c2984d8	0.010346614
170	0x3bc7844d	0.0060887695
171	0xbc0454bc	-0.008076843
172	0x3b0701a4	0.0020600343
173	0x3bf80100	0.0075684786
174	0x3bde6d5a	0.006787938
175	0xbca2fff6	-0.019897442
176	0x3a986106	0.0011625595
177	0xbc5f8371	-0.013642178
178	0x3a959ace	0.0011413933
179	0xbb6d21b7	-0.0036183426
180	0xbc0a400d	-0.008438122
181	0x3d0ed841	0.034874205
182	0xbc0b0eed	-0.008487445
183	0x3c68ac98	0.014201306
184	0x3db35885	0.08757118
185	0xbc89956c	-0.016794883
186	0x3d000216	0.03125199
187	0xbc1bf07f	-0.009517788
188	0x3ce4a28f	0.027909545
189	0x3c9e93e1	0.019357624
190	0xbcd151f2	-0.02555177
191	0x3b928be2	0.0044722417
192	0xbb2fa6b5	-0.0026802246
193	0x3e12503a	0.14288417
194	0x3c867576	0.016413432
195	0x3b88a57b	0.0041701174
196	0xbc3141be	-0.010818897
197	0x3c1d2d32	0.009593295
198	0xbd832a09	-0.06404502
199	0xbb185653	-0.0023244813
200	0x3b3ff442	0.0029289876
201	0xbba66b0b	-0.0050786785
202	0x3c97e5d3	0.018542206
203	0xbd52fc6f	-0.05151027
204	0xbc6d8f2c	-0.014499467
205	0xbce5054d	-0.02795663
206	0x3d19a73d	0.037513006
207	0xbbbea0dd	-0.0058175162
208	0xbd22b890	-0.039726794
209	0x3c8fb6bf	0.017543195
210	0x3d8761ca	0.06610449
211	0x3c450a33	0.012026357
212	0x3cf8b079	0.030357586
213	0xbcbb26e0	-0.022845685
214	0xbdb3f98d	-0.087878324
215	0x3da85b82	0.08220579
216	0x3d9833b7	0.07431739
217	0x3c95489b	0.018223098
218	0x3b18a3f0	0.0023291074
219	0xbc9f9378	-0.019479498
220	0x3c9a8646	0.018862855
221	0x3ab28d8b	0.0013622505
222	0x3bd5dbad	0.0065264315
223	0xbc621ba1	-0.013800533
224	0x3cd23698	0.025660798
225	0x3bd95921	0.0066329394
226	0x3c804d80	0.015661955
227	0x3c8bf36f	0.017083852
228	0xbc192735	-0.009347727
229	0x3c891acd	0.016736412
230	0x3ce58841	0.028019072
231	0x3b2e53ec	0.0026600314
232	0xbdd048dd	-0.101701476
233	0x3c33708a	0.010952124
234	0xbd0373e4	-0.032092944
235	0x3ca19b63	0.019727414
236	0xbc6c9284	-0.014439229
237	0x3cc2c099	0.023773478
238	0xbb904394	-0.004402587
239	0x3c968f00	0.018378735
240	0xbc985be5	-0.018598506
241	0x3c76a5c6	0.015054172
242	0x3d941055	0.072296776
243	0xbc1cdd1d	-0.009574202
244	0x3c6612ac	0.014042538
245	0xbb998aaf	-0.004685722
246	0x3d5db20b	0.054124873
247	0x3ccfc4e2	0.025362436
248	0xbc6c1883	-0.014410141
249	0xba35234f	-0.00069098634
250	0x3c884d31	0.01663837
251	0xbb02a071	-0.0019932056
252	0x3c393d05	0.011306052
253	0xbbb2a52b	-0.0054518185
254	0x3b009a4b	0.0019623216
255	0x3ae4fa2e	0.0017469579

fc2.bias f4 [10]
0	0xbe29127d	-0.16510959
1	0xbe117a2d	-0.14206763
2	0x3e2e0353	0.16993456
3	0xbe259a6c	-0.16172189
4	0x3c4728af	0.012155696
5	0x3ceb5590	0.028727323
6	0xbe1b2cd3	-0.15153818
7	0x3e4afaa4	0.19822174
8	0x3e03a33c	0.12855238
9	0x3e4304d4	0.1904481
