model/modelFCNet/LfwNet/RReLU/FCNet_epoch3_Cluster40.pkl (torch_old, 107630 bytes, 4 tensors)

fc1.weight f4 [100, 256]
00000000: f262 9bbd dd8f 433c 99fd b63d d005 2e3e
00000010: 665e a6bd b7d1 98bd febd e7bd 3023 f6bd
00000020: 80d7 533d 0d34 b6bb db0f b0bd fd93 d8bd
00000030: c9db f73d bd65 7fbc 97c0 d7bd 53a2 663b
00000040: f21c db3d 6d58 fcbb d458 51be e2ce fb3c
00000050: 29cc 04be 146e 65bd 1d8a 90be b3f7 1bbb
00000060: 3f57 bdbd 12e4 32bd 408e e33c 99ce 3d3d
00000070: 258f d4bd dcd0 58bd 6836 64bd 8c56 7d3d
00000080: 5963 c7bc 144c 11bd a10b 65bc 2be6 ff3d
00000090: c496 be3c 2649 f73c 2c3c d13d 6cf8 723c
000000a0: 9412 4f3d 7911 6bbd 96a2 cabc 1177 7f3d
000000b0: 1fd0 f53d 6863 d03c 11fb 24bb 0d1e 923c
000000c0: 6d86 56bd b95b 8e3b af4f f03c 09aa 0f3e
000000d0: 5c26 74bd 816e 33bd ee84 103c 1de3 933d
000000e0: 8f39 acbd 077c dfbc 8c63 3fbc b365 89bd
000000f0: c3b9 5c3c 07f0 843d 3ffb da3c 920c 38be
00000100: 585f dfbd ac6e aebd 0c4e 0fbd 3886 223c
00000110: a30b a73d 6deb 233d 70d0 1cbc 5c70 7ebd
00000120: ff1f 883c 4631 51bd 362b 8dbd 3f5f 953c
00000130: 7038 e1bc 91cc 71bd f238 5b3c 59a7 08be
00000140: 58da 15bd 6fb8 923c 4b86 553d 94a3 223c
00000150: 6042 64bd dd66 a4bd 5fd3 c43d e6e7 b6bd
00000160: d277 823d 1b1f 19bb 896e 4239 d201 00be
00000170: b9bc b2bc 1114 a1bc 2795 dc3c 030c 1ebc
00000180: 2bd1 383c 97ec 35bc 1e56 7cbd 0169 ceb9
00000190: 6c2e bb3d 9d8e 563d a3ad 34bd 717b 46be
000001a0: 10ba 693d 6f5f c5bd 87c7 8dbd 2512 353d
000001b0: cacc 22bb e81e d23d 704d d53d b82c e13c
000001c0: 84ef ea3c 0ff1 b03c fee9 acbc 784e f7bc
000001d0: e1bd af3c 3525 803b 4f6d e2bc a89e d6bd
000001e0: 7cd9 b6bd 46f8 c13b 9b3f ec3d 86f4 efbd
000001f0: 33e1 7dbc 70b8 96bc 293c 0abc 50f8 e0bd
00000200: e8cf 1abd 678a bfbd eb6a 663d 10d3 82bd
00000210: 8dca 27bc 44fb 88bd 9dc0 733d 44b0 c1bd
00000220: fe79 453b bcf0 c5bd 1382 fc3c a6e6 20bd
00000230: fd10 133d a75e 57bd 966a 66be 4fac 203d
00000240: 0233 b6bb 5a56 9abc 178e 71ba b894 aabc
00000250: d324 e7bd cf4a acbc 5dbf 493e 0623 5ebd
00000260: 4ca7 ee3c 034d ed3d 828f 883d 6bbc 82bc
00000270: 55c1 833d aaac 54bd da72 023e f870 443d
00000280: 76f2 a13c 5672 cfbc 26a8 05bd d923 0c3e
00000290: 25bd 7d3b e370 26bd 84e1 bfbd 9b24 b4bc
000002a0: 8815 c93d 6fe5 f73d 1475 1c3e 2735 83be
000002b0: 593e e7bd 5db3 5f3c a5b2 07bd 06ea 413e
000002c0: cab0 013e 73b7 7abd c155 29be 6084 7bbc
000002d0: 8de8 133b da71 08bc 8cc0 3abd 8b4d 14bd
000002e0: 7aa5 1fbd 79d9 d5bd a3f1 9bbd 4e8b 023d
000002f0: 6977 7c3d 10b2 be3c 0134 aebd a1a7 88bc
00000300: fbc9 373d f0b6 05bd d29d 54bd 12d7 71bd
00000310: eacb d43c 8a8f 12bd 5a1f 343d 12b0 633d
00000320: eb43 04bc 50c9 2a3d fd57 bdbd 7baa 603d
00000330: 7531 74bc 9f96 be3c 7e62 14be 1b32 3ebc
00000340: 31c3 a03d 464f 9e3d 3cb4 6abd dda3 a7bd
00000350: 082e 2f3d 9e57 023d 97db 17be 3c29 c3bc
00000360: eb9c 0ebe b319 4c3d 672b 293d d0c0 eabc
00000370: c090 9d3d ead3 0d3e 97ec 963c 1e0c ce3c
00000380: a077 80bd 9ed6 8d3a fedf 94bd 2489 0e3c
00000390: b1a6 94bd c655 93bd 5db7 5b38 0455 d93d
000003a0: 34d5 1abe bc71 9e3d 4c48 80bd 5e11 41bd
000003b0: 3679 063e b52f f9bc 284b 69bd db59 0d3e
000003c0: 84ee 4ebd 62f0 d2bc b28d 07bc b7ae 84bd
000003d0: 261e 8a3d 6159 adbd b3b5 b9bd 4ea0 fe3d
000003e0: 01ac b93d 0073 093d 0968 153d 31f1 79bd
000003f0: 4494 85bd 0e9f 17be 864b 563d c746 473c
-0.07587232 0.011936155 0.08935089 0.16994405 -0.08123474 -0.07461875 -0.11315535 -0.1201843
0.05171919 -0.005560404 -0.08596774 -0.105751015 0.121024676 -0.015588221 -0.105347805 0.0035191968
0.1069888 -0.007700971 -0.20444041 0.030738298 -0.12968506 -0.05601318 -0.28230372 -0.0023798763
-0.092451565 -0.043674536 0.027777791 0.046339605 -0.10378865 -0.05293356 -0.05571595 0.061850116
-0.024339365 -0.035472944 -0.013979823 0.12495073 0.02326525 0.030186247 0.10216555 0.014829736
0.050554827 -0.05738971 -0.02473573 0.06236941 0.120025866 0.025438026 -0.0025174061 0.017836595
-0.052374292 0.0043444303 0.029334871 0.14029707 -0.059606895 -0.043806557 0.008820755 0.07221053
-0.08409416 -0.02728082 -0.011681449 -0.06708851 0.013472023 0.06491094 0.026731132 -0.17973545
-0.10906857 -0.08517203 -0.03498654 0.009919696 0.081565164 0.04001944 -0.00957118 -0.062118873
0.01661682 -0.05107238 -0.068930075 0.018233893 -0.027492732 -0.05903298 0.013380276 -0.13345088
-0.036585182 0.01791021 0.052130025 0.009926695 -0.055727363 -0.08027432 0.09610628 -0.0893095
0.0637051 -0.0023364488 0.0001854246 -0.12500694 -0.021818506 -0.019662889 0.02692659 -0.0096464185
0.011280338 -0.011103771 -0.061605565 -0.00039369616 0.09139714 0.0523821 -0.044110905 -0.19383027
0.05706221 -0.09637343 -0.069228224 0.044206757 -0.0024841302 0.10259801 0.10415161 0.027487144
0.028678663 0.02159932 -0.02110767 -0.030188784 0.021452846 0.0039106854 -0.027640013 -0.1047948
-0.089282006 0.005919489 0.11535569 -0.11716561 -0.015495586 -0.018398494 -0.008437195 -0.10984862
-0.03779593 -0.0935257 0.05625431 -0.06387913 -0.010241163 -0.0668855 0.059509862 -0.09457448
0.0030132527 -0.09665057 0.030823743 -0.039282463 0.035904873 -0.052580502 -0.22501597 0.039226826
-0.00556028 -0.018840004 -0.00092145934 -0.020822868 -0.112863205 -0.021031765 0.19701906 -0.05423262
0.029132508 0.115869544 0.06667997 -0.015958985 0.064333595 -0.051922478 0.12739125 0.047959298
0.019768935 -0.025323074 -0.032631062 0.1368555 0.0038717475 -0.040635 -0.093691856 -0.021990111
0.0981856 0.12104308 0.15279037 -0.2562649 -0.11291189 0.013653603 -0.033129353 0.18936929
0.12665096 -0.061210107 -0.16536619 -0.015351385 0.002256903 -0.008327926 -0.045593783 -0.036206763
-0.03897617 -0.1044187 -0.07614448 0.031871133 0.061637316 0.023278266 -0.08506013 -0.016681494
0.044870358 -0.032645166 -0.05190832 -0.059042998 0.02597614 -0.03578142 0.04397521 0.055587836
-0.0080728335 0.041695893 -0.09245298 0.054850083 -0.01490437 0.023265181 -0.14490697 -0.011608626
0.0784973 0.07729964 -0.05730079 -0.08185551 0.04276851 0.03182184 -0.1482986 -0.023823373
-0.13927047 0.049829196 0.041301157 -0.028656393 0.076936245 0.1385037 0.018423362 0.025152262
-0.06272817 0.0010821407 -0.072692856 0.008699689 -0.07258356 -0.07194094 5.238444e-05 0.106119186
-0.15120393 0.07736537 -0.062637895 -0.047135703 0.13132176 -0.030418256 -0.05695644 0.13803808
-0.050520435 -0.02574939 -0.008273529 -0.06478637 0.067440316 -0.08464313 -0.090678595 0.124329194
0.0906601 0.03355694 0.03647617 -0.061021034 -0.0652242 -0.14806768 0.05231812 0.012162871

fc1.bias f4 [100]
00000000: d9e8 e03d 13ea a63d 633c b1bd 2b08 ba3d
00000010: 575e 5cbd ac48 57be 7541 393d 76bb 103d
00000020: da85 233e 40e6 63bc 3bb3 233e bc28 813e
00000030: 4478 2fbe 0907 de3d 06be 9bbe 526f 4dbe
00000040: 80ab 523d a07e f1ba 50cd 09bd 2e02 cf3c
00000050: f1a0 473d 0d73 0c3e 88b0 a6bd 3b3d 953d
00000060: 2845 9bbd 4068 abbc 35dd 1bbd 2173 1bbd
00000070: f786 aabd e81a e2bd 2b34 4cbd 0f79 4d3e
00000080: 744b a7bd 9740 97bd 6e0e 5b3d ed21 5d3e
00000090: df1c 3c3d e078 3a3e 328d 64bd e434 a1bd
000000a0: 5baf 80bd eb1f e2bd 6fbf 043e d1cd b5bd
000000b0: e568 c8bd 46c6 393e eff7 573d 3aa7 f9bd
000000c0: 3a00 29bd 8034 95bd 2661 7ebd 5e2c 353d
000000d0: 6cf8 a63d c83d 93bd 695c 35bd faaa 16bd
000000e0: 0646 e33b 196b 0abd 0b5c 9ebc 0af9 3ebe
000000f0: 7e10 fc3d b378 463e c59d b9bd 5d98 23be
00000100: 3132 cfbd 431d 323e db79 3d3e 6f9a 0bbd
00000110: 918b 43bd 88d0 233e 7194 82bc 7a9b 34bd
00000120: a420 81bd cba6 1ebe 78d4 173e 8c2c a73d
00000130: 7310 1fbd 8d50 083d 94e3 bcbd 788d 5dbd
00000140: f8ca ed3c 4db2 17be 2952 083e 442b 183d
00000150: f9a6 7abd 86b3 04bd 40c0 b23c a5bd 53bd
00000160: e502 983c 80d8 cdbd e302 7fbd ab7a afbd
00000170: b50f bc3d 3f36 87be e983 bb3d 5cc3 3abd
00000180: c110 fc3d bb7d 2dbd 78df d93d e3df 85bd
0.10981912 0.08150115 -0.08654096 0.09083589 -0.053800907 -0.21023816 0.04522844 0.035335027
0.15969029 -0.013909876 0.1598634 0.2522639 -0.17135721 0.108411856 -0.30418414 -0.20061997
0.051433086 -0.0018424578 -0.033643067 0.025269594 0.04873747 0.13715763 -0.081391394 0.072870694
-0.0758155 -0.020923734 -0.038052756 -0.037951592 -0.08326524 -0.11040288 -0.04985444 0.20065711
-0.081686884 -0.073853664 0.053480558 0.21594973 0.04592597 0.18210173 -0.055798717 -0.07871416
-0.062834464 -0.11041244 0.12963651 -0.08877147 -0.09785632 0.18142042 0.052726682 -0.12190099
-0.04125998 -0.07285404 -0.062104367 0.044231765 0.081528515 -0.07189518 -0.044277582 -0.03678415
0.0069358377 -0.033793543 -0.019330999 -0.18649688 0.12307833 0.1938198 -0.09063295 -0.1597609
-0.10116995 0.17393975 0.18503515 -0.034082826 -0.047740523 0.15997517 -0.015939923 -0.044093587
-0.06305054 -0.15493314 0.14827144 0.081627935 -0.038834047 0.033279944 -0.092230946 -0.054089993
0.029027447 -0.1481411 0.13312592 0.037150636 -0.061194394 -0.03239777 0.021820188 -0.05169453
0.018556068 -0.1005106 -0.062258612 -0.08568319 0.091826834 -0.26408574 0.09156019 -0.045596465
0.12307883 -0.042356234 0.106383264 -0.06536844

fc2.weight f4 [10, 100]
00000000: faa8 24bc 087a 543c 0749 9b3c e15b a33c
00000010: aa5f 81bc bcaf bcbc 3acd 57bd 06e9 1c3c
00000020: 7c6c d93a 0245 623c 8340 873d 6681 80bd
00000030: 8b82 613c c961 08bc 784e 063e ab5d 27bd
00000040: 9963 d0ba 616d cf3d 227b 3dbd b357 7f3c
00000050: 67cf 403c 8e93 f4bc b8a4 183c a131 6139
00000060: ae18 1039 3d9d e43c da49 2e3c 3ab7 8db9
00000070: b5dd f6bb f053 0f3d 5309 4b3c b4d4 e1bb
00000080: f7f4 eb3b 91b2 8a3b fce9 52bd 652d e4bc
00000090: 8d72 78bc 05b4 f23c acf8 8f3b 30f3 6cbc
000000a0: eb70 cb3c 504e 153b a9c3 2cbd ec4b 17bd
000000b0: 6e5e 823b 2616 8b3c 6506 613b 323e ddbb
000000c0: 72b7 783d f77b 393c 615b f8bc fe94 35bb
000000d0: a38e 7bbc d9a2 97bb aa44 4bbd f752 81bc
000000e0: 485c 02bb e72e 0239 d06c 103d 2862 aebc
000000f0: 3f30 49bc 7524 8fba 5fb9 5abd 6d2e fa3c
00000100: 78d0 903c 7ec3 eabc 8bbf 503a 120a 863b
00000110: c880 8fbc fef8 8fbd 2c9c a73c 261d 38bc
00000120: 0924 e43c e290 ac3c 6edc 10bc df43 973c
00000130: 96b5 973c deee 2fbd 8296 0b3d e2b9 85bc
00000140: 9218 e3bb 2c08 ab3c d7dc 14bc e6a9 723c
00000150: e0c1 89bd 700d 80ba d57d 0a3d 1b50 5b3c
00000160: a290 1a3b 312c 9fbc f27c 01bc b565 1ebd
00000170: c519 fd3c 6a42 023d 3eae eebb ad06 013d
00000180: 5612 683c 6545 f7bb 9ba6 123d 4524 e03c
00000190: 6210 253c 8956 963b 20ce 96bc 6166 ddbc
000001a0: 7db6 50bb 0dbb 8a3d fd4d afbc 6bcd 963c
000001b0: f7b4 b93c 7768 d03a 688e c5bc 1847 01be
000001c0: ef41 593c 29c5 473d c995 4abd ea28 343c
000001d0: 8130 653b 828d 91bc 67f7 413b dbd8 ddbb
000001e0: aa8b 483c 3c6c efbb 2069 2abd 1b62 39bd
000001f0: 83af a4bc 81e0 b7bc 801e 3a3b a363 58bc
00000200: 097e 14bd a9c2 7e3d 0d86 67bc 535b 3cbd
00000210: 66fd c2ba 5ee2 47bb eaf8 293d 0375 26bd
00000220: 6519 cebc a3a9 91bb 806f 99bb 2dbb b23c
00000230: 7f7a 973b d45b c33c c07a 12bb c908 bb3c
00000240: 5209 46ba 3e92 493d 5ee0 8bbb 5c97 e43b
00000250: ffa4 de3b cf06 aabc 5383 36bc a22e 803b
00000260: e196 bdba e47d b23b fbce 7cbb 00c5 4e3c
00000270: ef2b f8bb 9e56 e93c 00d4 69bb 707e 393d
00000280: 5191 a5bc 2cbb 8f3b 09a0 54bc 37e6 273d
00000290: 8912 e5bc 76f8 ff3a 87fb 60bc 3fc3 a6bb
000002a0: 9f3c be3c d028 243c 63d9 dd3b 1039 57bb
000002b0: db93 d53b 0f76 383c 7f11 e23b 3d04 8ebc
000002c0: 9d35 823b 2736 8bbc db55 bfba 3223 b0bb
000002d0: 7d77 c4bb db57 e43c bbde 60bb 9b7e 4b3c
000002e0: e045 bd3d 73b2 9abc dd26 093d b924 13bc
000002f0: d22c b33c fabf b03c 706f c7bc 2fca 243c
00000300: 3f78 96bb 0a71 103e 1f02 533c e938 e8ba
00000310: 8e85 59bc f9be 4e3c d4d1 6cbd c9b3 803b
00000320: b3ed ce3b 2d98 24bb b3c4 7e3c 1f34 40bd
00000330: 542b 51bc e765 01bd d2f6 143d 8522 4739
00000340: ac56 29bd 4e55 4d3c 66dc 8b3d 910d 523c
00000350: 2521 c83c e3cb a0bc 5784 b3bd fec7 a13d
00000360: 63a4 9d3d 0677 683c 63d1 933b d520 a3bc
00000370: 713f 9c3c a1fe 373b 355c 913c f7f7 2dbc
00000380: bdf7 073d 3758 3fbb 0822 773c 12f6 a2bb
00000390: 0acb 91bc 46a2 9e3c 04c4 b23c 54b0 373b
000003a0: 4078 cebd 15ca 423c 5218 14bd 6526 c63c
000003b0: debc ebba 7a53 c03c eebd b53b d750 b03c
000003c0: 9823 a1bc 449b 993c 378f 8d3d d382 4cbc
000003d0: 0c3f 373c 0e02 58bb 0003 4f3d dc1a fa3c
000003e0: 354c 4abc 8729 33bc f922 993c 6401 feba
000003f0: 07a5 253c 4cf0 6aba d4b4 a1ba a891 123b
-0.010050053 0.012968548 0.01895572 0.019941272 -0.015792686 -0.023033015 -0.052685954 0.0095770415
0.0016588117 0.013810398 0.066041015 -0.06274681 0.013764034 -0.008324095 0.13115871 -0.040860813
-0.0015898823 0.10128284 -0.046260007 0.015584874 0.011768199 -0.029855516 0.009316616 0.0002147616
0.00013742104 0.027907008 0.010637725 -0.0002703013 -0.0075337538 0.03499216 0.01239236 -0.0068918113
0.007200833 0.0042327126 -0.051492676 -0.027853677 -0.01516403 0.029626856 0.0043936577 -0.014462277
0.024834117 0.0022782274 -0.042178784 -0.03693764 0.003978542 0.016978335 0.0034336087 -0.006751799
0.060721822 0.011321059 -0.03031701 -0.0027707214 -0.015353831 -0.0046275673 -0.04962603 -0.015786631
-0.001989143 0.00012415239 0.03526002 -0.021287039 -0.012279569 -0.0010920899 -0.05339944 0.030539716
0.01767753 -0.028657671 0.00079631124 0.004090556 -0.017517462 -0.07029913 0.02046021 -0.011237418
0.027849214 0.02106518 -0.008841617 0.01846498 0.018519204 -0.04295241 0.034079082 -0.016323987
-0.0069304192 0.02087792 -0.009085855 0.014811015 -0.06726432 -0.000976963 0.03381141 0.013385798
0.0023584743 -0.019430252 -0.007903324 -0.038671214 0.030896077 0.03180162 -0.007283955 0.031500507
0.014164528 -0.0075461143 0.03580342 0.027361045 0.010074707 0.0045879525 -0.018408835 -0.027026357
-0.0031847053 0.06773958 -0.021399492 0.018408498 0.022669299 0.0015900274 -0.024115756 -0.12624776
0.013260349 0.04877201 -0.049459253 0.010996083 0.0034971538 -0.017767671 0.0029596926 -0.006770236
0.01224033 -0.0073066037 -0.04160416 -0.045259576 -0.020103222 -0.022445919 0.0028399527 -0.013207349
-0.03625301 0.06219736 -0.014131081 -0.04598553 -0.0014876544 -0.0030499916 0.04149715 -0.040638935
-0.025158593 -0.004445271 -0.0046824813 0.021817768 0.004622757 0.023847498 -0.0022350997 0.022831338
-0.00075544894 0.049211733 -0.00426869 0.0069760513 0.0067945714 -0.0207552 -0.011139709 0.003911809
-0.0014464521 0.0054471362 -0.0038575518 0.012620211 -0.0075735967 0.028483685 -0.003567934 0.045286596
-0.020210894 0.0043863263 -0.0129776085 0.040991034 -0.02796294 0.0019529003 -0.013731844 -0.005089193
0.023222266 0.010019496 0.0067702993 -0.0032840408 0.00651787 0.011258616 0.0068990584 -0.017336005
0.0039736764 -0.016993595 -0.001459773 -0.0053752894 -0.0059956894 0.027873924 -0.0034312445 0.012420322
0.09241843 -0.01888392 0.03348433 -0.008980923 0.021871958 0.021575917 -0.02434513 0.01005797
-0.004591971 0.14105621 0.012878924 -0.0017717156 -0.013276471 0.012618774 -0.057817295 0.003927682
0.006314957 -0.0025115118 0.015549826 -0.046924707 -0.012766678 -0.031591322 0.0363682 0.00018990978
-0.041342422 0.012532545 0.06829147 0.012820617 0.024429867 -0.01962847 -0.08765476 0.078994736
0.0769737 0.014188534 0.004511045 -0.019913116 0.01907322 0.0028075355 0.017744163 -0.010618201
0.033195246 -0.0029196867 0.015083797 -0.0049731815 -0.017797012 0.019364487 0.021821983 0.0028028684
-0.100815296 0.011889 -0.036156006 0.02418823 -0.0017985364 0.023477305 0.005546323 0.021522922
-0.019670293 0.018750794 0.06912082 -0.012482363 0.011184465 -0.003296021 0.05053997 0.030530386
-0.012347271 -0.010935194 0.018693434 -0.0019379077 0.010110146 -0.00089621986 -0.0012337216 0.002236465

fc2.bias f4 [10]
00000000: 2cba 29be 1900 11be 5ab8 2d3e 838b 24be
00000010: 2d43 403c 6e59 ee3c 14c0 1abe 3613 4c3e
00000020: 9dbe 023e 88e2 413e
-0.16574925 -0.14160194 0.16964856 -0.16068844 0.011734766 0.029095378 -0.15112334 0.19929203
0.12768026 0.18934071
