model/modelFCNet/LfwNet/RReLU/FCNet_epoch3_Cluster45.pkl (torch_old, 107626 bytes, 4 tensors)

fc1.weight f4 [100, 256]
0	0xbda28f99	-0.07937545
1	0x3c230ff2	0.009952532
2	0x3dc45a85	0.09587578
3	0x3e3efcbe	0.18651101
4	0xbda0bd24	-0.07848576
5	0xbda2ca4b	-0.079487406
6	0xbdf85c72	-0.121270075
7	0xbdfcb63b	-0.12339445
8	0x3d50359b	0.050832372
9	0xbc8888c1	-0.016666772
10	0xbda9e433	-0.08295479
11	0xbdb0c1a2	-0.086306825
12	0x3e0415b8	0.1289891
13	0xbc265cc4	-0.010153953
14	0xbddb3840	-0.10704088
15	0x3c126873	0.008936035
16	0x3db7ee6c	0.08981022
17	0x3b3609db	0.002777687
18	0xbe4cfacd	-0.20017548
19	0x3cabf48c	0.020990632
20	0xbe192bb4	-0.14958078
21	0xbd7063ed	-0.058689047
22	0xbe8ec43b	-0.27884087
23	0xbc1269ee	-0.008936388
24	0xbdc6a861	-0.097000845
25	0xbd378dc8	-0.044812948
26	0x3ced4ec8	0.02896823
27	0x3d588c95	0.052868444
28	0xbdc30bd3	-0.0952374
29	0xbd588999	-0.0528656
30	0xbd542882	-0.051796444
31	0x3d908369	0.070563145
32	0xbc84c092	-0.016205106
33	0xbd260cc9	-0.040539537
34	0xb9add6d2	-0.00033157185
35	0x3df9f34b	0.122046076
36	0x3cf991ea	0.030465085
37	0x3cc739f5	0.024319628
38	0x3dd50d25	0.10402898
39	0x3bece30e	0.0072292155
40	0x3d356876	0.044289075
41	0xbd770ba2	-0.06031383
42	0xbcf3fe94	-0.029784478
43	0x3d5e3079	0.054245446
44	0x3e019623	0.12654929
45	0x3c9108e2	0.017704431
46	0x3be67df0	0.007034056
47	0x3cb76330	0.022386163
48	0xbd39f26d	-0.04539721
49	0x3b75ddf6	0.0037516332
50	0x3cff1116	0.031136077
51	0x3e210d23	0.15727668
52	0xbd6644d1	-0.056217972
53	0xbd38c627	-0.045110848
54	0x3c9bc5c7	0.019015206
55	0x3d906ebf	0.07052373
56	0xbd9bddbf	-0.07610654
57	0xbd12814c	-0.03576784
58	0xbc830879	-0.015995251
59	0xbd8f857e	-0.070078835
60	0x3c6b25ff	0.014352321
61	0x3d9b4e0a	0.07583244
62	0x3cc29b43	0.023755675
63	0xbe316f17	-0.17327534
64	0xbdc93a82	-0.098256126
65	0xbdafd4e7	-0.0858553
66	0xbd346d13	-0.044049334
67	0xbb0e5bc0	-0.0021722168
68	0x3d9648d1	0.073381074
69	0x3d3bfc74	0.045895055
70	0xbc982edb	-0.01857703
71	0xbd85979f	-0.0652306
72	0x3c9795dd	0.018504078
73	0xbd579a37	-0.052637305
74	0xbd688352	-0.05676586
75	0x3cee209a	0.02906828
76	0xbcd44e5a	-0.025916267
77	0xbd665ad3	-0.05623896
78	0x3c9336cb	0.017970463
79	0xbdfe2c81	-0.12410832
80	0xbd0581d7	-0.032594528
81	0x3cea588b	0.028606674
82	0x3d50ea7c	0.05100487
83	0x3c336020	0.010948211
84	0xbd59d8a4	-0.05318512
85	0xbda74193	-0.08166804
86	0x3dc3e576	0.095652506
87	0xbdda7948	-0.10667664
88	0x3d817e7d	0.06322954
89	0xbc4899e7	-0.012243724
90	0x3c0ce726	0.008600032
91	0xbde4b561	-0.11167408
92	0xbceabdaf	-0.028654901
93	0xbc6d3fe1	-0.014480562
94	0x3cbb1628	0.022837713
95	0xbbb6b3ac	-0.005575618
96	0x3c86dcb5	0.016462663
97	0xbba56812	-0.0050478065
98	0xbd86ce94	-0.065823704
99	0xbb171da8	-0.0023058448
100	0x3da2ceaf	0.07949578
101	0x3d79d6ab	0.06099574
102	0xbd0a6c22	-0.03379453
103	0xbe3e8592	-0.1860564
104	0x3d5e66d3	0.05429728
105	0xbdb02147	-0.08600097
106	0xbd8ef78f	-0.06980812
107	0x3d347cbb	0.044064265
108	0xbaa9dccd	-0.001295948
109	0x3dae2907	0.08503919
110	0x3dccaa6a	0.099934414
111	0x3cab99d1	0.020947369
112	0x3cf73c5f	0.030180154
113	0x3bdb97f3	0.0067014634
114	0xbcea5f59	-0.028609918
115	0xbd24e159	-0.04025397
116	0x3d247e9c	0.040159807
117	0xbb6c9eaf	-0.0036105325
118	0xbd3de763	-0.046363246
119	0xbdddb92a	-0.10826333
120	0xbdbafdab	-0.091304146
121	0x3b6d3f60	0.0036201105
122	0x3dfa70b5	0.122285284
123	0xbde06f9f	-0.1095879
124	0x3c03bfa1	0.008041293
125	0xbad69120	-0.0016370155
126	0xbc53bee4	-0.01292393
127	0xbdc8de0b	-0.09807976
128	0xbd49e8e3	-0.049294364
129	0xbdbc5386	-0.09195618
130	0x3d7aba9a	0.061213113
131	0xbd618ff6	-0.055068932
132	0xbcab3296	-0.020898145
133	0xbd864384	-0.06555846
134	0x3d660aee	0.056162767
135	0xbdc8606a	-0.097840145
136	0x3c7f109c	0.015567925
137	0xbdd185d4	-0.10230604
138	0x3ccee960	0.025257766
139	0xbd2bb678	-0.041922063
140	0x3d2bcf57	0.04194578
141	0xbd807d77	-0.062739305
142	0xbe60c409	-0.21949781
143	0x3d1cc9a4	0.038278237
144	0x3b6f1d03	0.0036485798
145	0xbcaf4b7a	-0.021398295
146	0xbb8ed514	-0.004358897
147	0xbcc03f49	-0.023467677
148	0xbde95230	-0.11392629
149	0xbccb8b44	-0.02484668
150	0x3e4a1794	0.19735557
151	0xbd4d907c	-0.05018662
152	0x3d0c70d6	0.034287296
153	0x3def0580	0.11670971
154	0x3da71b3f	0.08159494
155	0xbbac25c5	-0.005253526
156	0x3d643b75	0.055720765
157	0xbd1aba2a	-0.037775196
158	0x3e15196f	0.14560483
159	0x3d0e6088	0.034760028
160	0x3cb4117c	0.021980993
161	0xbc45cc30	-0.012072608
162	0xbd1a3279	-0.03764579
163	0x3e077877	0.13229547
164	0x3c059885	0.008154039
165	0xbd369fe8	-0.044586092
166	0xbdb8f3a9	-0.090308495
167	0xbc85f240	-0.016350865
168	0x3dc46862	0.09590222
169	0x3df62bfe	0.120201096
170	0x3e201550	0.1563313
171	0xbe82853d	-0.25492278
172	0xbddb335e	-0.10703157
173	0x3c7c4a05	0.015398507
174	0xbd14daac	-0.036341354
175	0x3e3d454b	0.18483464
176	0x3e04b024	0.12957817
177	0xbd1191c8	-0.03553942
178	0xbe1f1ed1	-0.155391
179	0xbbdcbb47	-0.0067361924
180	0xb9342156	-0.00017178556
181	0xbc229fed	-0.009925825
182	0xbd499f0f	-0.049223956
183	0xbd3b09a8	-0.045663506
184	0xbcf71c2f	-0.030164806
185	0xbdd01789	-0.10160739
186	0xbd9e747e	-0.07737063
187	0x3c855fc6	0.01628102
188	0x3d8b98b6	0.06816237
189	0x3c2648a4	0.010149155
190	0xbdaac904	-0.08339122
191	0xbcbce73f	-0.023059485
192	0x3d4dd5ff	0.05025291
193	0xbd15927c	-0.03651665
194	0xbd333c66	-0.043758772
195	0xbd8db832	-0.06919898
196	0x3ced92c6	0.029000651
197	0xbcca5f9f	-0.024703799
198	0x3d37a7d6	0.044837795
199	0x3d5e4bc3	0.05427147
200	0xbbc83e95	-0.006110976
201	0x3d69d941	0.057091955
202	0xbdc6d551	-0.097086556
203	0x3d2ba226	0.041902684
204	0xbc1d7ec8	-0.009612747
205	0x3ccebba5	0.02523596
206	0xbe0d42f6	-0.13795075
207	0xbc4cb95f	-0.012495368
208	0x3dbb0de2	0.09133507
209	0x3db095d2	0.08622326
210	0xbd5b04b7	-0.053471293
211	0xbdac4766	-0.08412056
212	0x3d00d915	0.031457026
213	0x3d4548d9	0.048165176
214	0xbe2477c7	-0.16061316
215	0xbcd03785	-0.025417099
216	0xbe086e56	-0.1332334
217	0x3d5be885	0.053688545
218	0x3d3ae5aa	0.04562918
219	0xbce7daa0	-0.02830249
220	0x3d9c4f94	0.07632366
221	0x3e0f6c6e	0.14006206
222	0x3cd9f263	0.026604837
223	0x3ce336e1	0.02773613
224	0xbd9143e4	-0.07093027
225	0xbc42da47	-0.011892862
226	0xbd9c0556	-0.07618205
227	0x3c73bca9	0.014876523
228	0xbd937801	-0.07200623
229	0xbdafafa5	-0.085784234
230	0xbb3ee6d4	-0.0029129284
231	0x3dcced5e	0.10006212
232	0xbe2000a2	-0.15625241
233	0x3da491ed	0.08035646
234	0xbd964dbd	-0.07339046
235	0xbd28be5c	-0.041197166
236	0x3e03703a	0.1283578
237	0xbcef8d94	-0.029242314
238	0xbd514a57	-0.051096287
239	0x3e110a42	0.1416407
240	0xbd3136c5	-0.043265123
241	0xbd1bdbcf	-0.038051423
242	0xbbbc5b60	-0.0057481974
243	0xbd8c2935	-0.06843797
244	0x3d926ff9	0.07150263
245	0xbda12ccd	-0.07869873
246	0xbdaf1562	-0.08549
247	0x3dfeeebd	0.124478795
248	0x3dd439ac	0.103625625
249	0x3d045eb1	0.032316867
250	0x3d12a51f	0.035802003
251	0xbd9e81b4	-0.07739583
252	0xbda1b9e3	-0.07896783
253	0xbe1fdf3d	-0.15612502
254	0x3d2f3a7c	0.042780384
255	0x3ca13e58	0.019683048

fc1.bias f4 [100]
0	0x3de29732	0.110639945
1	0x3da36946	0.07979064
2	0xbdb22a7d	-0.0869951
3	0x3dc0dda1	0.09417272
4	0xbd49ec32	-0.04929752
5	0xbe58740b	-0.21138017
6	0x3d31db1e	0.043421857
7	0x3d06604c	0.03280668
8	0x3e223c9f	0.15843438
9	0xbc4e23a0	-0.012581736
10	0x3e23b799	0.15988006
11	0x3e7f4b3a	0.2493104
12	0xbe3023bb	-0.1720113
13	0x3dda5588	0.10660845
14	0xbe9dc07b	-0.30810913
15	0xbe4e82d2	-0.20167091
16	0x3d649534	0.055806354
17	0xba66ba2b	-0.0008801545
18	0xbd088bc2	-0.03333641
19	0x3cd9ce2b	0.026587566
20	0x3d55e8b8	0.05222389
21	0x3e0a9702	0.13534167
22	0xbdaa83df	-0.08325934
23	0x3d925713	0.07145514
24	0xbd9623bf	-0.07331037
25	0xbca02cc6	-0.0195526
26	0xbd2aac0b	-0.04166798
27	0xbd22396a	-0.039605536
28	0xbda49eba	-0.08038087
29	0xbdd5ccd7	-0.10439461
30	0xbd499312	-0.049212523
31	0x3e4fa430	0.20277476
32	0xbda44c00	-0.08022308
33	0xbd966b3a	-0.073446706
34	0x3d64163b	0.055685263
35	0x3e5c6d27	0.21526013
36	0x3d40160f	0.046896037
37	0x3e385f99	0.18005218
38	0xbd56a187	-0.05240014
39	0xbda21adc	-0.07915279
40	0xbd7a27bb	-0.061073046
41	0xbde19b38	-0.11015934
42	0x3e065c1d	0.13121076
43	0xbdb18d11	-0.086694844
44	0xbdc86cef	-0.097864024
45	0x3e38a2e8	0.18030894
46	0x3d650ae6	0.055918597
47	0xbdf016ab	-0.117230736
48	0xbd2cba27	-0.042169716
49	0xbd93226a	-0.07184298
50	0xbd8250cc	-0.06363067
51	0x3d3750c7	0.04475477
52	0x3da8719e	0.08224796
53	0xbd8db513	-0.06919303
54	0xbd335e48	-0.043791085
55	0xbd21880a	-0.039436378
56	0x3be4aaaa	0.0069783526
57	0xbd10704d	-0.03526335
58	0xbcb9b767	-0.02267046
59	0xbe40a5a9	-0.18813194
60	0x3dfd225b	0.123600684
61	0x3e478f15	0.19488175
62	0xbdb832e8	-0.089940846
63	0xbe20b5f0	-0.15694404
64	0xbdca98fb	-0.0989246
65	0x3e3154ef	0.17317556
66	0x3e3cfacb	0.18455045
67	0xbcfddcc1	-0.030989053
68	0xbd5d80c2	-0.05407787
69	0x3e25891a	0.16165581
70	0xbc78b059	-0.015178763
71	0xbd34050b	-0.04395012
72	0xbd7beda2	-0.06150592
73	0xbe1ff385	-0.15620239
74	0x3e1c1305	0.1524163
75	0x3da6253b	0.0811257
76	0xbd25243d	-0.040317763
77	0x3d0a30fb	0.033738118
78	0xbdb6c369	-0.0892399
79	0xbd595c70	-0.05306667
80	0x3cf40541	0.029787662
81	0xbe161bd7	-0.14659058
82	0x3e08f118	0.1337322
83	0x3d1f065f	0.038824435
84	0xbd6dae95	-0.058027823
85	0xbd2126b4	-0.03934355
86	0x3ca9b1f9	0.020714747
87	0xbd592c6f	-0.05302089
88	0x3c885afe	0.016644951
89	0xbdd2cab1	-0.102925666
90	0xbd77d796	-0.060508333
91	0xbdadbc9e	-0.084832415
92	0x3dbcfbee	0.09227739
93	0xbe86b839	-0.26312426
94	0x3dc031d7	0.09384506
95	0xbd45ca80	-0.048288822
96	0x3dfe2005	0.12408451
97	0xbd381200	-0.04493904
98	0x3dd7cab4	0.105367094
99	0xbd690bd4	-0.056896046

fc2.weight f4 [10, 100]
0	0xbc70a87c	-0.014688607
1	0x3c9c4acf	0.01907864
2	0x3c25ffd9	0.0101318
3	0x3d15522d	0.036455322
4	0xbcc86d52	-0.02446619
5	0xbcc1d582	-0.023661379
6	0xbd622fa1	-0.055221204
7	0x3b838f3f	0.004014879
8	0x3ac7e51d	0.0015250776
9	0x3c8de58e	0.017321374
10	0x3d75f176	0.06004473
11	0xbd6ca65a	-0.057775833
12	0x3c1da2d4	0.009621341
13	0xbc1b630d	-0.009484065
14	0x3e05a948	0.13052857
15	0xbd277e41	-0.04089189
16	0x3c285550	0.010274246
17	0x3dd11e74	0.102108866
18	0xbd4164a9	-0.047215138
19	0x3c88ba1d	0.016690308
20	0x3c5d66c0	0.013513267
21	0xbd3044dc	-0.04303442
22	0x3b7f8995	0.0038991917
23	0xba018419	-0.00049406436
24	0x3aac36b6	0.0013138864
25	0x3cc013d6	0.023446959
26	0x3c71a57f	0.01474893
27	0xbb23ad72	-0.0024975208
28	0xbb00c227	-0.0019646974
29	0x3d08bf2a	0.033385433
30	0x3c4674c1	0.012112797
31	0xbbf68569	-0.007523228
32	0x3b8e1798	0.0043363087
33	0xbb0fb149	-0.0021925739
34	0xbd4750f2	-0.04866118
35	0xbcdb033d	-0.026734943
36	0xbcb1ff42	-0.021728162
37	0x3cf3643e	0.029710885
38	0x3bf06778	0.007336553
39	0xbbaca4aa	-0.005268653
40	0x3cd1572c	0.025554262
41	0xbba14708	-0.0049217977
42	0xbd183b06	-0.037165664
43	0xbd0feccd	-0.03513794
44	0x3ba042b9	0.0048907665
45	0x3ca31cdb	0.01991122
46	0xbb3823ef	-0.002809759
47	0xbc59a20e	-0.013283266
48	0x3d71a5b4	0.058995917
49	0x3bcd1d0a	0.0062595652
50	0xbd08ceca	-0.033400334
51	0xba32255e	-0.0006795729
52	0xbc40be4b	-0.011764119
53	0x392f46f9	0.0001671574
54	0xbd5e3039	-0.054245207
55	0xbc417284	-0.011807088
56	0xbb8d640e	-0.004314906
57	0xbbf61899	-0.0075102565
58	0x3c8a1525	0.016855786
59	0xbcb761d2	-0.022385512
60	0xbc5f8d16	-0.013644477
61	0xbb97dabc	-0.0046342295
62	0xbd5eeebc	-0.054426894
63	0x3c92d4df	0.01792377
64	0x3c7e5767	0.015523768
65	0xbcf053ae	-0.029336777
66	0xbb0608da	-0.0020452053
67	0x3c532cac	0.012889069
68	0xbc8e7b7d	-0.017392868
69	0xbd8a5e2c	-0.06756243
70	0x3cb5e738	0.02220498
71	0xbc38279e	-0.011239914
72	0x3cccdef2	0.025008652
73	0x3c602601	0.013680936
74	0xbbf3ca91	-0.0074399193
75	0x3c9b68ac	0.01897081
76	0x3cb58131	0.02215633
77	0xbd3170ac	-0.043320343
78	0x3d2a971f	0.041648027
79	0xbca625c5	-0.020281682
80	0xbc33512b	-0.010944645
81	0x3ca7e3fa	0.02049445
82	0xbc023ed5	-0.007949551
83	0x3c4e11e6	0.0125775095
84	0xbd862b3c	-0.06551215
85	0x3c01b0fd	0.007915732
86	0x3cbebd38	0.023283586
87	0x3adf8936	0.0017054442
88	0x3b83cdca	0.0040223347
89	0xbca22ff1	-0.01979825
90	0xbbb90f9f	-0.005647614
91	0xbd14b281	-0.036303047
92	0x3d05e813	0.032692026
93	0x3ce6307f	0.028099297
94	0xbc233a8d	-0.00996269
95	0x3d0228eb	0.031777304
96	0x3b8ca93d	0.0042926357
97	0xbc88cab1	-0.016698213
98	0x3d13b184	0.036057964
99	0x3d0d13e8	0.034442812
100	0x3c3bdd9c	0.01146641
101	0x3c22ea28	0.0099435225
102	0xbcacc80c	-0.021091484
103	0xbd07a1d1	-0.033113305
104	0xbb3d7a9f	-0.00289122
105	0x3d889611	0.06669248
106	0xbcaf2587	-0.0213802
107	0x3c8e6dac	0.01738628
108	0x3cc739f8	0.024319634
109	0xbc3e6d61	-0.011622758
110	0xbd06a5ac	-0.03287284
111	0xbe03c6c2	-0.12868789
112	0x3c94ae79	0.018149601
113	0x3d46ec52	0.048565216
114	0xbd4479b0	-0.047967613
115	0x3c2dd8de	0.010610787
116	0x3bfd4957	0.00772969
117	0xbc78067a	-0.015138263
118	0xbbbbb2db	-0.0057281083
119	0x3a70a45b	0.00091797643
120	0x3c61876f	0.0137652
121	0xbbe7b882	-0.0070715556
122	0xbd0d663e	-0.034521334
123	0xbd3604a5	-0.044438023
124	0xbcc2701d	-0.0237351
125	0xbc65e72d	-0.014032167
126	0xbb57bcb4	-0.0032918872
127	0x39d086b7	0.00039773222
128	0xbcd4fc64	-0.025999255
129	0x3d87dae3	0.06633546
130	0xbccc1723	-0.024913376
131	0xbd3cab7d	-0.04606198
132	0xbaa1e653	-0.0012351967
133	0xbbda690e	-0.0066653555
134	0x3d0fcec7	0.035109308
135	0xbd2dab98	-0.042399973
136	0xbcac8418	-0.021059081
137	0xbbd51cae	-0.006503663
138	0xbc75d637	-0.015004686
139	0x3c890357	0.016725225
140	0xba5c2328	-0.00083975727
141	0x3c882528	0.01661928
142	0xbb91779e	-0.0044393083
143	0x3bc7d860	0.006098792
144	0xbbaf16de	-0.005343302
145	0x3d5222a0	0.051302552
146	0xbbe92421	-0.0071149026
147	0x3ada297b	0.0016644442
148	0x3c4d0e79	0.012515658
149	0xbc09c91a	-0.008409763
150	0x3b291e3a	0.002580537
151	0x3ba04502	0.004891039
152	0xbc0ecd47	-0.008715934
153	0x3b4e4f1b	0.0031480256
154	0xbb53078f	-0.003220055
155	0x3c974cec	0.018469296
156	0xbc381e1d	-0.011237648
157	0x3d13bb13	0.03606708
158	0xba633512	-0.0008667271
159	0x3d3160c6	0.04330518
160	0xbc24238e	-0.0100182425
161	0x3b93095c	0.0044871997
162	0xba4a983d	-0.0007728374
163	0x3d072b54	0.033000305
164	0xbca57bec	-0.020200692
165	0x3c0c62e9	0.008568504
166	0xbc2103d2	-0.009827571
167	0xbc31d422	-0.010853799
168	0x3ce5bc7e	0.028043982
169	0x3bb6212f	0.005558155
170	0x3c350c43	0.011050287
171	0xbc4ef9ab	-0.012632768
172	0x3c3a02c6	0.0113532
173	0x3bea7b56	0.007155816
174	0x3c05b7ab	0.008161466
175	0xbcaf4996	-0.021397393
176	0xba15cd12	-0.0005714457
177	0xbcaaa976	-0.020832758
178	0x3aae75c2	0.0013310241
179	0xbbfbb252	-0.0076811695
180	0xbb9391af	-0.004503451
181	0x3d00b558	0.031422943
182	0xbc4f4174	-0.012649883
183	0x3c6f2f2b	0.014598648
184	0x3daff6c0	0.08591986
185	0xbbbadf95	-0.0057029226
186	0x3d0164a2	0.03159011
187	0x3aab69d9	0.001307781
188	0x3d0a4434	0.03375645
189	0x3c82ec45	0.015981803
190	0xbc283d08	-0.010268457
191	0xbae915d7	-0.0017782998
192	0xbbe89c2f	-0.0070986967
193	0x3e12dbc6	0.1434165
194	0x3c4101a0	0.011780173
195	0x3b4cbffa	0.0031242357
196	0xbc2028b3	-0.009775328
197	0x3c89aba5	0.01680548
198	0xbd73bec4	-0.0595081
199	0xbc185f1c	-0.00930002
200	0x3b822044	0.0039711315
201	0xbbd34081	-0.0064468984
202	0x3c3d1531	0.011540697
203	0xbd77efaf	-0.060531314
204	0xbc441c2c	-0.011969607
205	0xbcfaa192	-0.03059462
206	0x3d0d4c03	0.03449632
207	0xbb83381c	-0.0040044915
208	0xbd1d59b2	-0.03841562
209	0x3b68946a	0.0035488852
210	0x3d90a14e	0.070620164
211	0x3c5cf770	0.013486728
212	0x3cfbcc7c	0.030737154
213	0xbcea9523	-0.028635567
214	0xbdb2f0bb	-0.08737322
215	0x3da4e024	0.08050564
216	0x3da2d8e7	0.07951527
217	0x3c94d154	0.018166222
218	0x3b4d6332	0.0031339643
219	0xbcb91935	-0.022595027
220	0x3c9451b1	0.01810536
221	0x3b53e192	0.0032330495
222	0x3becb280	0.0072234273
223	0xbc26d7dd	-0.010183302
224	0x3d037e25	0.032102723
225	0xbbdd0bf8	-0.0067458116
226	0x3ca45406	0.020059597
227	0xb9861353	-0.0002557287
228	0xbc988786	-0.01861931
229	0x3c252f04	0.01008201
230	0x3c076d60	0.008265823
231	0x3b98f0d4	0.004667381
232	0xbdd1decc	-0.10247573
233	0x3b147732	0.0022654054
234	0xbd35deb9	-0.044401858
235	0x3ca1dbaf	0.019758074
236	0xbc201f94	-0.009773154
237	0x3cbfbd06	0.023405563
238	0x3c05dd85	0.00817049
239	0x3c91b289	0.017785328
240	0xbc81c85b	-0.015842607
241	0x3ca2d790	0.019878179
242	0x3d90fce9	0.07079489
243	0xbbc5451c	-0.0060202014
244	0x3cabd472	0.020975325
245	0xbb93c671	-0.00450974
246	0x3d59fe67	0.053221133
247	0x3cad9863	0.021190828
248	0xbc775797	-0.015096567
249	0xbb4bb9c6	-0.0031086071
250	0x3c0ed22d	0.008717102
251	0xbac25f04	-0.0014829342
252	0x3c187403	0.009305003
253	0xbc480d5b	-0.012210215
254	0x3a0f01df	0.0005455296
255	0x3b555f6f	0.0032558104

fc2.bias f4 [10]
0	0xbe276256	-0.16346106
1	0xbe128862	-0.14309838
2	0x3e2e0ea8	0.16997778
3	0xbe25c102	-0.16186908
4	0x3c5a720f	0.013332858
5	0x3ce970e6	0.028496217
6	0xbe1d8aa8	-0.15384924
7	0x3e4c3000	0.19940186
8	0x3e0562da	0.1302599
9	0x3e4159eb	0.18881957
